Adult_TabularAttention_best (1).pt (torch, 434444 bytes, 32 tensors)

pos_embed f4 [1, 14, 64]
00000000: 1161 483e 2ea1 8abe 1adf ab3e de1b 2a3e
00000010: 1ce6 00be 8987 d53d ef5a 34be 4ef4 093e
00000020: 1c71 27be d461 bd3d be16 e4bb c128 b83b
00000030: 3d96 e33d 9d46 4e3e 64f7 f8bc 9ce9 93bc
00000040: 5c0a 4f3d aaa9 ab3e 4098 313e c699 9f3e
00000050: 3c73 e73d 7a17 ef3d 0f23 debe 7749 c4bc
00000060: 0a22 5abe df9d bd3d 20d9 4e3c 94c5 6abe
00000070: 743c 4f3e aef4 1b3e 44e4 35be 8d47 1ebe
00000080: 2266 3d3e af7f 1c3d cc17 613b a7ff c43e
00000090: e033 a33e a85a fcbc 516e eabd 6bc8 813e
000000a0: c6cb 95bd c666 103e 20a9 37be d6df 23bb
000000b0: c2a2 203e 79ec babc 9709 bd3d deef 273e
000000c0: 5c07 953d 82c3 c43d 5a78 693d e9c3 64be
000000d0: dd6f 87be 0ee4 c4bb d8a1 a6be ec10 823d
000000e0: 44d5 da3d 45de 413e 3db5 4cbe 2b43 83be
000000f0: 8500 1bbe 9156 693e e3af c63d 813f 6abe
00000100: ae1c bdbe 4f92 b83e aeda 933e aac0 f33d
00000110: da58 563d 220f a2bb 9915 ac3e 681d 1bbd
00000120: 6b23 d13d 8213 883e 7c21 e53d fe00 5cbe
00000130: 1fe8 42be 4774 12be 8a2a 1fbe 6d33 423e
00000140: 1073 363e 705f a0bd 2a89 94be 596f 45be
00000150: 7d56 01be affd 0fbd af34 bdbc f105 a43e
00000160: a2b9 5d3e 473d 49be b3f0 583e cd74 d03d
00000170: ee45 34be ebf0 c2bd aaef 383e c113 3b3d
00000180: 6dca 053e d68e c13d 8478 6abe 67b3 acbe
00000190: dddf 3a3e 4333 153e 3611 433e 07ce 12be
000001a0: 4f7e 593e d53b 86be fc78 b23d c940 07be
000001b0: 621e e93d 1fcf e83b 8819 13be 70d4 d43b
000001c0: f05e 6cbe d000 07be fdd9 d7bd 0236 a53e
000001d0: 3916 963e 45e6 fdbd 0e66 333e 8ffd 63be
000001e0: d9a0 b7be cfdb b8be e358 153e 64fd 5a3c
000001f0: bd3f c73d 8ca5 49be dbeb dbbd df72 5f3e
00000200: ef4d ffbd 8d79 1d3e ef2f 583e 7a9d 333b
00000210: f95d 0ebd 5fcb ae3d c25f 1d3e 890c 35bb
00000220: 449f fe3d 43f5 303e 3a2c 143e ad01 c6bd
00000230: 5a9f b2bb 129d d9bd 17b6 79bd 8976 da3d
00000240: cefe 483d 3d7d fbba 5ee7 85be 0c05 c63c
00000250: 0dae 26be cc7b 683d 054e adbd 9648 2f3e
00000260: 0d98 523e 61b8 bcbd a1cf af3d 9607 443c
00000270: 6a78 f7bd 3d3a faba ad10 9bba 5f95 a6bd
00000280: 4578 bf3d c764 9abd b0c0 cbbd e3f7 79be
00000290: 37aa 323d 26eb 9b3c e5a0 f13d 090d 28bd
000002a0: a4cb 843d 46e3 c6bc 6ff3 eebc 150c 3d3c
000002b0: 819d 513e 1244 21be e30f 6c3d 948f d03d
000002c0: f244 27be 8288 d6bc 414e 9a3d 9a82 db3d
000002d0: ff7d 9e3d 2abb 35bd 2108 7d3d 0f57 5bbd
000002e0: f678 edbd 8ad3 38be 3c98 b63d 8d87 8f3d
000002f0: 24f8 6c3d d03e 92bc 13e6 593d 251a 733d
00000300: eef3 03bd eb22 26bc 0251 8a3d f3e4 413d
00000310: 1c96 9cbd 77d6 753d 2649 bd3d 00cb 8fbd
00000320: d323 91bb 32ed 8fbb fb36 253e 1aa4 afbd
00000330: c54d a33d 96da 50bd 80ea 853d 06aa 253d
00000340: ff15 943d 2151 adbc 3f2a fcbd c4f2 eebc
00000350: 362d 62bc 93cf c13d 5d4f b03d 0104 bf3d
00000360: 1bb2 fa3c 6dcd eabd 613e 053c 1246 ad3c
00000370: 3dd4 3f3b c937 c8bc 68ed ce3c 175d 00be
00000380: 9e6f 273e bb17 c93c fe0a 59bd b32a 02bd
00000390: c054 f6bb f53d 933c 8460 a03d bd8d fabc
000003a0: 0a7a f73c 2e4c 2bbc 8881 9bbc 3c3f 1e3e
000003b0: 291d 303e 5c1c a7be cc88 f5bc 6e37 023e
000003c0: b11b 39bd 9e73 e1bd 267e ab3d c036 2a3d
000003d0: 3526 863d 3345 553d 52c4 6abd 1d65 763d
000003e0: a2f0 c03c dd77 e6bd 302a 913d 8436 36bd
000003f0: e77f 32bb 8602 bd3c 4e31 f23c 5bda 10bc
0.19568278 -0.27076095 0.3356865 0.16612193 -0.1258778 0.10426242 -0.17612813 0.13472101
-0.16351742 0.09247175 -0.006960719 0.0056200926 0.1111264 0.20144124 -0.030391403 -0.01805573
0.05054699 0.3352788 0.17343235 0.31172007 0.11301276 0.116744 -0.43386123 -0.023960812
-0.21302047 0.09258627 0.012625009 -0.22926933 0.20237905 0.15230057 -0.17762858 -0.15456982
0.18495992 0.038207706 0.003434646 0.38476297 0.31875515 -0.030804947 -0.114468224 0.2534822
-0.07314257 0.14101705 -0.1793561 -0.0025005243 0.15687087 -0.022817837 0.09230345 0.16400096
0.07276794 0.09607603 0.05699954 -0.22340359 -0.26452532 -0.0060086315 -0.32545352 0.06350884
0.106852084 0.18932445 -0.19991012 -0.25637183 -0.15136917 0.22786929 0.097015165 -0.22875787
-0.36935943 0.36049125 0.28877777 0.11901982 0.05233083 -0.0049456516 0.33610228 -0.03786984
0.102118336 0.26577383 0.11188027 -0.21484753 -0.1903386 -0.14302169 -0.15543571 0.1896493
0.1781733 -0.07830703 -0.29010898 -0.19280757 -0.12630649 -0.03515404 -0.02309641 0.32035783
0.21652845 -0.19652282 0.2118557 0.10178528 -0.17604801 -0.09518608 0.18060175 0.045673136
0.130655 0.09451072 -0.22897536 -0.33730623 0.1824946 0.14570336 0.19049534 -0.14336406
0.21239589 -0.26217523 0.08714482 -0.13208307 0.11382748 0.007104769 -0.14365208 0.006495051
-0.23083091 -0.13183904 -0.10539625 0.32267767 0.2931383 -0.12397436 0.175194 -0.22264694
-0.35864905 -0.361052 0.14584689 0.013366077 0.09728954 -0.19692057 -0.10738345 0.21821164
-0.124660365 0.15378399 0.21112035 0.0027407096 -0.034757588 0.08534884 0.1536856 -0.002762588
0.12432721 0.1728106 0.14469996 -0.096682884 -0.005451125 -0.10625662 -0.06096467 0.1066714
0.049071126 -0.0019187104 -0.26153082 0.024172328 -0.16277333 0.056758687 -0.08462147 0.17117533
0.20565815 -0.09214855 0.08584524 0.011964699 -0.12083514 -0.0019090843 -0.0011830531 -0.08133959
0.093491115 -0.07538753 -0.099488616 -0.24410968 0.04361936 0.019033026 0.11798266 -0.041028056
0.06484154 -0.024278294 -0.029168813 0.011538525 0.20470239 -0.15748623 0.05763234 0.10183635
-0.16334894 -0.026188139 0.07534457 0.1071827 0.077388756 -0.044367947 0.06177533 -0.053549822
-0.11595337 -0.18049446 0.08915755 0.07008276 0.057853833 -0.017852217 0.05319793 0.059351105
-0.03221505 -0.010140161 0.06753732 0.047337484 -0.076458186 0.060018983 0.092424676 -0.07021141
-0.0044293194 -0.0043922896 0.16134255 -0.08576222 0.07973818 -0.05098971 0.06538868 0.04044535
0.07230758 -0.02115685 -0.12312745 -0.029168494 -0.013804724 0.0946342 0.08608887 0.093269356
0.030602505 -0.11464963 0.008132548 0.021151576 0.002927079 -0.024440663 0.025259688 -0.12535511
0.16351172 0.024547448 -0.052989 -0.031779002 -0.007517427 0.01797388 0.07830909 -0.030585164
0.03020956 -0.010455174 -0.018982664 0.1545381 0.17198624 -0.32638824 -0.029972456 0.12716457
-0.045192424 -0.1100838 0.0837367 0.04155612 0.06550256 0.052067947 -0.057316132 0.060155023
0.023552243 -0.11253331 0.07088125 -0.044485584 -0.002723688 0.023072492 0.029564526 -0.0088411225

feature_embed.weight f4 [64, 1]
00000000: a2dc 18be 245a 70bf 8d31 0dbf 06bc 633f
00000010: f180 6f3f b009 37bf c56c 21bf f485 203f
00000020: 0075 64bf f4a1 a1bd e732 3dbf 456f 0ebf
00000030: 9dfc 27bf ec21 e53e b005 b33e dd79 883e
00000040: 7177 99be 83e2 92be ba6b 043f e9a2 22bf
00000050: 7ddc cd3e 6a08 5fbf 1c4f 54bf 3c06 b13e
00000060: 4232 4abf 9bf8 47be d67a ee3d 6bf1 41bf
00000070: 264b 643f 70a8 11be 8dbe 393f 34de 79be
00000080: 52ff 673f b822 ba3e 9f2f d0bd 946a 933e
00000090: 5d55 733e d64a efbd 15b1 4d3f b8cc 1dbf
000000a0: af3a cfbc 6a77 d5bd b18f febe fad0 66be
000000b0: 6292 1cbf e11c c33e 99a9 dcbe 45c1 10bf
000000c0: c288 8c3d 3b53 69bf 30e2 66bf d227 823e
000000d0: cedc f43e 6f70 acbd 03cf b73e 3970 1cbf
000000e0: 8808 c03e 9447 cb3e bcef 3f3f 263c 5abf
000000f0: 24ea 3fbf fbd6 45bf 26b5 51bf 4103 c43d
-0.14927915 -0.93887544 -0.55153733 0.88958776 0.93556124 -0.71499157 -0.63056594 0.62704396
-0.8924103 -0.07892218 -0.73905796 -0.55638534 -0.6561983 0.44752443 0.34965277 0.26655474
-0.2997394 -0.2868844 0.5172688 -0.6352983 0.40207282 -0.87122214 -0.8293321 0.3457507
-0.7898294 -0.19528429 0.11644523 -0.75759 0.8917717 -0.1422441 0.7255638 -0.2440117
0.9062396 0.36354613 -0.10165333 0.2879225 0.23763032 -0.11684196 0.8034833 -0.616405
-0.025296537 -0.10423167 -0.49719003 -0.22540656 -0.6116086 0.3810797 -0.43098143 -0.56544906
0.06862022 -0.91142625 -0.90188885 0.25421005 0.4782471 -0.084198825 0.35900125 -0.6110874
0.3750651 0.39703047 0.7497518 -0.8524803 -0.74966645 -0.7728116 -0.81917036 0.09570933

feature_embed.bias f4 [64]
00000000: f428 4bbf 84e0 943e d6b2 abbe 3be2 6fbe
00000010: 2a09 f7be 567e 4bbe ba61 143f 9534 043f
00000020: 0cce 113e ed18 8e3e 04bd 483f 1cb8 afbd
00000030: 53ee f33e b637 17bf d159 a2be b3f0 04be
00000040: 781b f1bd 428e 75bf 5895 5abf 71ca d1bd
00000050: 5018 de3e b0dd 1f3f da98 dc3e f6f5 3dbf
00000060: 07eb 983e ab90 823e 4283 4c3e e204 823e
00000070: e964 7cbe 9ca0 42bf 92ca 1e3f fd75 583f
00000080: 3248 26bf 029f 663f 26aa be3e 44bf 0abf
00000090: 4d28 dabe 7c19 61be c85d 6c3f f110 5dbf
000000a0: 6ed3 86be bd9e b03d c129 153f 0151 99be
000000b0: 8c3b 663f 43d6 3d3f 7c77 21bf 8fd2 e8be
000000c0: aa88 47be c590 29bf ce85 44be f98d 313f
000000d0: ccf4 5abe c2bd 53bd 283d d23d 3e4b c9be
000000e0: 9f0f 4bbf 8f6d 5ebf d7d7 8a3e 20e8 b83e
000000f0: 8352 90bd 0f5a 00bf 97b0 423f 180b 92bd
-0.79359365 0.29077542 -0.33534878 -0.23426144 -0.4824918 -0.19872412 0.5796162 0.51642734
0.14238757 0.27753392 0.78413415 -0.08580038 0.47642764 -0.59069383 -0.3170915 -0.12982444
-0.117728174 -0.95920193 -0.8538413 -0.10243691 0.43377924 0.62447643 0.43085366 -0.7420343
0.29866812 0.25500998 0.19971946 0.2539435 -0.24647869 -0.7602632 0.6202785 0.84555036
-0.6495391 0.90086377 0.37239188 -0.541981 -0.42608872 -0.21982378 0.923306 -0.86353976
-0.26333183 0.08624027 0.58266836 -0.29944614 0.8993461 0.7415506 -0.63072944 -0.45473143
-0.19485727 -0.66236526 -0.19191667 0.6935726 -0.21382445 -0.05169464 0.10265571 -0.39315218
-0.7932071 -0.86885923 0.27117798 0.36114597 -0.07046988 -0.5013742 0.76050705 -0.07131022

encoder.layers.0.self_attn.in_proj_weight f4 [192, 64]
00000000: b4d3 02be c6cc 2ebd b542 b2bd eb00 65bd
00000010: 5913 883d b3b7 b13d 98aa c83c 71da c93d
00000020: ba40 5c3d 777e f7bd 9ea2 97bd 7a16 66bd
00000030: 86ef 4b3d 004e 82bd ffd6 103e 91f0 8dbd
00000040: 0729 05be 8efb d93c 406e e5bc 5556 d9bd
00000050: 74d7 efbd 4157 de3d faca 9d3c eeab a73c
00000060: 1f94 793c d864 bf3d b5eb 84bd 1fab 573d
00000070: 313d 243e 6c2c 45bc 65db a73d a043 0ebe
00000080: 313d f5bd 61f9 babd bccf 1cbd 8891 94bd
00000090: 107b ffbd c8c1 cebd 2c38 11be abad a83d
000000a0: 4245 b7bd 8544 26bd c475 d8bd 5111 bbbd
000000b0: 0636 1dba b6dd d0bc a139 ac3d f146 623d
000000c0: 2c56 1d3d 8364 1cbe bb93 0c3e 72f6 613d
000000d0: 45ec 433a 962f 1f3d 288c 38bb 6bc6 84bd
000000e0: 0427 10be c30e 39bd e871 1a3e 75b0 103e
000000f0: a534 f63d 89a3 b53c f698 00be a392 b0bd
00000100: 6fe3 9b3c d778 bc3d 9dce d03b 029f df3d
00000110: 3479 a93d 3dcd d2bd 8e54 aabd e740 11be
00000120: 921e bf3d 53b7 15be 8c1d a5bc ac3e c03d
00000130: ce02 30bd 8021 4fbd a47f 223e 9f84 7d3c
00000140: f04e 54bd d7e4 653b e8c4 16be b343 81bd
00000150: 4f58 e7bd c828 d7b9 7bdf 8e3d 32ed 373d
00000160: 1a3f 81bd 9dc6 85bd 7a77 d6bc 16ad 883d
00000170: 8775 09be 1a1b 173e f741 153e f0b1 cfbb
00000180: ef40 efbd 4833 86bd 4535 40bd c39e 45be
00000190: 9d5c 9fbd 1b80 06be 4e6b 1d3e 2b7d 0dbe
000001a0: f0bf 34bd 5bbb 45be e7f4 be3d 968e b53d
000001b0: 062d 36bd 5a90 bcbd 42b4 453d cf69 65bc
000001c0: 3b31 18be 5254 96bd 05d5 17be d9db 243e
000001d0: 9d15 e0bd 69b5 b43b 9b88 c53c 2c7b bf3d
000001e0: 8fa2 f23d f6aa 0cbe 24fa f73d 4c1f 1b3e
000001f0: 60ac 96bd da92 08be d102 0b3d db65 4e3e
00000200: bd38 c63c 39d0 e8bd 363a d1bd 039e f7bd
00000210: 6763 103e 8f1a 88bd a848 be3d 88f0 02be
00000220: 3b00 b03d d8cf 2d3c b46c b2bd fba8 7b3d
00000230: 8bf1 b13d 3508 a03c 0db4 913d d847 d1bc
00000240: d993 fc3d e7ad 9ebd c87d e8bd c6a3 923d
00000250: 5e79 a6bd 938a f43d e915 62bc 9786 653d
00000260: 9e26 aa3c 0fd7 debc bd6b 6039 60f8 32bd
00000270: 381a b23d 158d 033e 74bb fa3d a3f2 fdbd
00000280: 1ec4 e93c a0cc 973d 029f 923d a59d 21bd
00000290: 35c0 34bd 49a0 8ebd 5627 a53d 5906 9f3d
000002a0: 6579 3abd e7ae d13d fae3 8f3d 1b2b fc3c
000002b0: 8a05 32bd 502d 8f3d 9474 b9bc a79a 2d3d
000002c0: 6d72 3dbe 07ed 0bbd 0599 f8bc a5d2 133e
000002d0: 5c67 c63d d5e8 2dbe a090 d1bc ddb9 253d
000002e0: a33a 3c3c d3d6 273d 8f3b ba3d ad8b 4c3d
000002f0: 7c42 243e 182c 6cbd 6fde fa3d fd4a 9c3d
00000300: 89b5 c9bd 7118 f4bd 3f39 c8bc 6c33 35bd
00000310: 1465 6b3d b890 09bd 1df9 0c3d f369 f63c
00000320: c71c e53d e556 123e 1911 113e 8e38 fb3c
00000330: 3cf1 a8bd a224 0a3b 0755 bf3d c6a1 cabd
00000340: 2e72 99bc 3c7c 0bbe 3a61 e9bd a180 173e
00000350: ba94 07bc a771 22bb 3859 593d ac4f 0c3e
00000360: 5716 e63d 045c 6c3d aa7f dbbd 6b04 8abd
00000370: 98b9 153d 6537 b63c d663 473d a680 30bd
00000380: 98b5 493d 8122 10be 1ddc 84bd 8139 fa3d
00000390: ba2d cabd a008 b3bd 78c1 96b9 5588 d23d
000003a0: a156 2a3e d106 49bd 2c04 e4bd ec21 b63d
000003b0: 2559 9ebd dca9 8abd e9dc ac3d 6879 2e3d
000003c0: 9e64 9a3d f359 06bd cc26 cc3d d783 c93d
000003d0: 1a86 dbbd 1e8d 0dbe 9e20 e1bd 756b d6bd
000003e0: 111a 053e c876 dcbd f5c4 01be ed8f fabd
000003f0: f76d 2cbd 3e70 e9bc 9fbf 0a3c 406c 293e
-0.12776071 -0.042675756 -0.087041296 -0.05590908 0.06644315 0.08677616 0.024495408 0.098561175
0.053772666 -0.12084668 -0.07404064 -0.05617378 0.049788974 -0.063625336 0.14144515 -0.0693065
-0.13003932 0.026609208 -0.028006673 -0.1061217 -0.11711016 0.10856486 0.019261826 0.020467725
0.015233069 0.09345406 -0.0649027 0.05265343 0.16038968 -0.012034517 0.08196143 -0.13892984
-0.11974562 -0.091295965 -0.03828405 -0.072543204 -0.12474644 -0.100955546 -0.14181584 0.082362495
-0.08948757 -0.04059269 -0.10569337 -0.09134162 -0.0005997125 -0.025496345 0.08409429 0.055243436
0.038412258 -0.15272717 0.1372823 0.05516667 0.00074738666 0.03886374 -0.0028159712 -0.06483158
-0.14077383 -0.045180093 0.15082514 0.14129813 0.1202176 0.022172706 -0.1255835 -0.08621719
0.019029347 0.09202736 0.0063722865 0.10919 0.08275071 -0.10293052 -0.08316909 -0.14184915
0.09332003 -0.14620714 -0.02015569 0.09386954 -0.042971425 -0.050569057 0.15869004 0.015473514
-0.051833093 0.0035079026 -0.14723551 -0.06311741 -0.112961404 -0.0004103838 0.06976219 0.04490394
-0.06310864 -0.06532023 -0.026180018 0.066736385 -0.1342374 0.14756432 0.14575945 -0.0063383505
-0.11682307 -0.0655275 -0.0469258 -0.19298844 -0.077813365 -0.13134806 0.15372965 -0.13817279
-0.04412836 -0.19309752 0.09324055 0.08865087 -0.04447653 -0.092072204 0.04826761 -0.0140022775
-0.1486253 -0.073403016 -0.14827354 0.1609949 -0.109416224 0.00551479 0.02411299 0.09349665
0.11847412 -0.13737091 0.121082574 0.15148658 -0.07357097 -0.1333727 0.033938233 0.20156042
0.024196977 -0.1136784 -0.10216181 -0.12090685 0.14100419 -0.06645691 0.09291202 -0.12787068
0.08593794 0.010608636 -0.0871214 0.06144045 0.08688649 0.019535163 0.0711442 -0.025546953
0.12332887 -0.07748013 -0.11352116 0.071601436 -0.08128618 0.119404934 -0.013799169 0.056036558
0.020770367 -0.027202157 0.0002140244 -0.0436939 0.08696407 0.12846787 0.12242785 -0.12399795
0.028535899 0.07412076 0.071592346 -0.039456982 -0.044128615 -0.06964166 0.08064143 0.077648826
-0.045525927 0.10238438 0.07025905 0.030782273 -0.043462314 0.069910645 -0.022638597 0.042383816
-0.18500681 -0.034161594 -0.030346403 0.14435823 0.09687683 -0.1698335 -0.025581658 0.040460456
0.011488589 0.040976357 0.09093391 0.049937893 0.16040987 -0.05765924 0.12249457 0.076314904
-0.09849078 -0.11918724 -0.02444136 -0.044238493 0.057469442 -0.03358528 0.03441726 0.030079817
0.111871295 0.1429096 0.14166678 0.030666616 -0.08249137 0.0021078964 0.093423896 -0.09894137
-0.018731203 -0.1362161 -0.113954976 0.14795162 -0.008275205 -0.002478698 0.0530636 0.13702267
0.1123473 0.05770494 -0.10717709 -0.06739124 0.03655395 0.022243211 0.048679195 -0.04309144
0.049245447 -0.14075662 -0.06487296 0.12217999 -0.09872003 -0.087418795 -0.00028754375 0.102799095
0.16634609 -0.049078766 -0.11133608 0.08893189 -0.07731847 -0.06770679 0.08440573 0.04259625
0.075387225 -0.032800626 0.099683374 0.098395996 -0.10718937 -0.13823363 -0.10992549 -0.104697146
0.12998225 -0.10764843 -0.1267279 -0.12234483 -0.04209706 -0.028495904 0.008468538 0.165452

encoder.layers.0.self_attn.in_proj_bias f4 [192]
00000000: 4cfb 4cbc 578d e7bb c58d 64bc cbbd 4ebc
00000010: 1093 ce3c a21b e13c f14b 0c3d 3198 d63b
00000020: a59d c93a 95b1 8a3c 0440 4fbe 5e45 38bc
00000030: 9e0d 31bc 624c cebd fd18 973a 05ec 553d
00000040: 9ebf 133c fea9 a3bc e73d 003d 5057 ba3c
00000050: 3e27 bb3b b862 a93c 55b5 c8bb 99b5 2cba
00000060: 6353 23bc e406 1b3c afb1 1ebc cd63 283d
00000070: 80fb e9bc 95e5 ec3c 1411 2c3b 655b 123b
00000080: 968f c4bb ae8f 11bb beb1 463c 6f5f 0d3c
00000090: b1fe 90bb 0589 323c c33b c13a 0e77 3bbc
000000a0: dab4 e5bc 7876 15bb 0799 833b f952 bdba
000000b0: f0a4 3fbc 8000 423b bfcc 0c3b 066e 84bc
000000c0: 1a5d 093d e292 113c 6d15 033d c1d5 5d3d
000000d0: 5dff e4bb e5ed 84bc 3ec0 c63c b52c bebd
000000e0: a964 ef3c 49f5 a7bc 5ee2 c43c a953 fabc
000000f0: bc91 e3bc 33f6 abbc 5af3 e5bc 408e 3e3b
00000100: 8583 d037 cc2a 753a 9f61 0cba ca3f 423a
00000110: 4276 423a eefa f339 8fc2 72bb 785d 4eba
00000120: 4ef9 b8b8 e46f 5ab9 91af 463c 10c8 09b9
00000130: cc72 e039 837c c039 9668 61b9 3002 0b3b
00000140: 9041 9639 be10 2dba 46f6 163a 8d2b 183a
00000150: 7ba8 8139 5006 0b3a bd63 d5b9 d308 68b9
00000160: 83e4 2c37 801b db39 9ad4 37ba 828e 583a
00000170: c031 1bb9 ee33 783a e133 de39 9673 8239
00000180: 427c 15b8 93b7 b8b8 3ae8 01b7 9550 51b8
00000190: c2e0 8238 d382 99b6 f772 ecb8 f8bb 0039
000001a0: 7d8a 0539 cc9d 1cb8 3d74 84b8 e842 89b7
000001b0: 6026 bfb8 bd84 1f38 c717 fcb8 de62 eab7
000001c0: 85c5 b3b9 bdc6 bdb9 ebd3 01bb b85a 7bba
000001d0: 50fd 4539 b448 283a ee3a 95ba 3024 0c3b
000001e0: 10d1 35ba aa97 d0b8 5bdd 37ba acc2 283a
000001f0: afb0 ac3a 8b15 213a 824c 763a 4630 76b9
00000200: 03f5 febb 31e1 793a 70d6 2ebc ed48 57bb
00000210: d9d3 133b e6c0 3d3c 0e0f 3abb 6028 64bc
00000220: c035 8fba ab91 34ba 64d5 31bb ffd6 88bb
00000230: 21fe 8abb d028 043c 3ce5 653c 4f70 3c3c
00000240: 0f66 d13c 6d6a 98bc 8dc8 c6bb a9ce c93b
00000250: 0019 603b 3198 19bb 7e95 093c 8814 87bb
00000260: 0da0 18bb 5682 25bc 4c32 413c 15b4 153b
00000270: 7c5f d03c dfa5 92bc b9ce 423c bf45 ea3a
00000280: 15ee 78bc 7a53 a9ba ce78 f7bb f9a2 c13c
00000290: 387f 963c 6c92 203b 871a 5b3c 5dad ebbb
000002a0: 2d61 1b3c 5e9d 843b e2aa d93c fc78 dd3b
000002b0: f524 2d3c 3c30 02bd 1e17 b33b 4ace 81bb
000002c0: fd13 98bc 132b 5dbb d94a 923c 75d8 b13b
000002d0: 62af 4ebb f4cb 8d3c bd7e d73c 98bb 9b3c
000002e0: 6d30 ccbc 6bca 17bb b34f 92bc 0279 98bb
000002f0: 950b 14bb 2305 893a 00e2 253c edff 06bd
-0.012511086 -0.0070664096 -0.013949816 -0.012618492 0.02521661 0.027478997 0.03425211 0.0065489043
0.0015382065 0.01693038 -0.20239264 -0.011247007 -0.010806469 -0.100731626 0.0011527833 0.05222704
0.009017853 -0.01997852 0.031309035 0.022746712 0.005711465 0.020676956 -0.006125132 -0.00065883395
-0.009968611 0.009462092 -0.009685918 0.041110802 -0.028562307 0.028918067 0.0026255297 0.0022332307
-0.005998562 -0.0022210884 0.012127338 0.00862871 -0.004424893 0.010896926 0.0014742542 -0.011441959
-0.028040338 -0.0022806209 0.004016045 -0.0014444283 -0.011697039 0.0029602349 0.0021484343 -0.016165745
0.033536054 0.008885117 0.032002855 0.05415893 -0.0069884495 -0.016226718 0.02426159 -0.09285871
0.029222803 -0.020502703 0.024033722 -0.03055747 -0.027779453 -0.02099142 -0.02807014 0.0029076487
2.4856776e-05 0.00093523855 -0.0005355123 0.0007410018 0.00074181345 0.0004653553 -0.0037042235 -0.00078722043
-8.82024e-05 -0.00020831783 0.012126819 -0.00013139867 0.0004281014 0.00036713862 -0.00021496633 0.002121102
0.00028659077 -0.0006601921 0.00057587435 0.00058048294 0.00024730325 0.000530337 -0.00040700837 -0.00022128531
1.0305203e-05 0.00041791424 -0.0007012576 0.00082609814 -0.00014800485 0.00094681873 0.00042381792 0.0002488165
-3.5640092e-05 -8.807997e-05 -7.743069e-06 -4.990453e-05 6.2407475e-05 -4.5749853e-06 -0.00011274771 0.00012277055
0.0001273546 -3.7340258e-05 -6.3159016e-05 -1.6362828e-05 -9.1147376e-05 3.8032176e-05 -0.00012020725 -2.7941012e-05
-0.00034288704 -0.0003619696 -0.001981015 -0.0009588408 0.0001888175 0.0006419525 -0.001138536 0.0021383874
-0.0006935755 -9.9464625e-05 -0.00070138805 0.00064377 0.0013175214 0.0006144873 0.0009395556 -0.00023478371
-0.0077806725 0.00095321523 -0.010671243 -0.0032849864 0.002255669 0.011581635 -0.002839032 -0.013925642
-0.0010926053 -0.00068881613 -0.0027135247 -0.00417602 -0.0042417203 0.008066371 0.0140317045 0.011501386
0.02556136 -0.018605435 -0.006066388 0.006158669 0.0034194589 -0.002343666 0.008397458 -0.0041223206
-0.0023288757 -0.010101875 0.011791777 0.0022842933 0.025436155 -0.01790136 0.011890107 0.0017873569
-0.015193482 -0.0012918555 -0.007552243 0.023637282 0.01837121 0.0024501337 0.013373024 -0.0071922974
0.009483618 0.00404708 0.026570741 0.006758807 0.010567893 -0.03178428 0.0054654023 -0.003961359
-0.018564219 -0.0033747598 0.017857956 0.005427415 -0.0031537642 0.017309166 0.02630555 0.01901035
-0.024925435 -0.0023161422 -0.01786027 -0.004653097 -0.0022589911 0.0010453801 0.010124683 -0.032958914

encoder.layers.0.self_attn.out_proj.weight f4 [64, 64]
00000000: 3945 d23d 2151 a7bd 8bea 703d 751b c43d
00000010: c0a4 cd3d 9628 67bd 3a99 07bd 9e74 dbbd
00000020: 1f98 94bb 3905 a63d 5c9d d8bc 2ddd 4c3d
00000030: eb7f d9bd f27a aebd 24fe 403d b0da 20be
00000040: 2ee8 923d 2a75 693d 8963 b5bc 442f cdbc
00000050: 6738 c93c 0910 cb3d 68de ad3d dd18 debd
00000060: 83f5 083e f0f0 86ba f236 0cbe 55ac febb
00000070: d199 cebd 3c27 54bd d27a 5ebd 870d 2a3c
00000080: ff07 9fbd bf45 b03d ccf1 203d 2632 84bd
00000090: 1d5c 953d f275 92bd 11d0 8a3d 5a5b c9bc
000000a0: e3a9 89bd fe88 14bd 9049 d2bd 45f9 3d3d
000000b0: 3a4d d13d 0f48 afbc 2d19 8a3c 00c0 033d
000000c0: e1af a23b bddd 563d ea4b 8e3c 639c 8b3d
000000d0: 8d68 90bd 63da 173d 8f3a 913b a605 2fbd
000000e0: f9bd 7fbd 6a70 42bd dfcf 5dbd 7514 9a3d
000000f0: 0d14 43bd 9b63 20bd f030 423d 0659 aa3d
00000100: a630 e03c a6d2 6cbd 8986 3dbd d307 ec3d
00000110: 55fa cf3d 39a2 1abd 7747 d0bd 5301 a3bb
00000120: 044d e13d e762 dc3d aa8e c13c f8f1 42bb
00000130: 8ff1 e03d 610b e83d 97fc 89bd cf8d 603d
00000140: ebd1 96bd 509b f33d 5b8d 4abd fdb7 1d3b
00000150: 8c8d c3bd c26f fb3d f722 353d 35aa 3eba
00000160: 6b5c 9b3d b5f7 ce3d e98b 0e3d 3ccb bebc
00000170: dc14 86bd a79c b03d 8fb4 8bbc 9a35 ebbd
00000180: 98e6 c53d 68c2 a9bd 6ba0 283d a633 cf3c
00000190: 89d6 9bbd 97ac dfbd d44e 583d 7c31 843d
000001a0: 6ab6 cebd cabf 273d d2e9 c23c 09be b0bd
000001b0: 8ea2 c63d 2a67 a73c 81aa 003e 35ff 8e3c
000001c0: ebdd 2abd 1b84 77bd 880f cebd b6e6 273d
000001d0: 2a02 8c3c c15b 083e ee10 d9bd ccbe a63d
000001e0: 5980 e1bc 4259 c63d 5ef9 483d 0aa8 82bc
000001f0: 5a32 463d c419 74bb 8457 38bc d41d f6bd
00000200: 7878 a3bd 93c8 ccbd 893c 98bd e6b8 aebd
00000210: 9dbe 34bc 1875 aabd ac36 52bc bdaa 093e
00000220: 4a0e 5bbd a083 2dbd ae55 c73d 5693 5b3d
00000230: 3b94 593d bc9a a1bc bcc9 06be 1b43 c1bc
00000240: 9059 b6bc be35 093d b254 c83d cb50 933d
00000250: eec8 51bc 5c53 063e e391 a53c f0ad 343d
00000260: 3773 d93d fd53 f9bd f939 bc3b 3511 223b
00000270: 43c4 593d 8454 003e 020e 083d 8568 b3bd
00000280: 7434 7d3c f168 123e 279e d4bd dab0 c9bd
00000290: f9c9 683d db65 2fbb ea23 9e3d bce3 b6bd
000002a0: d174 1b39 e9eb b13d fed7 d4bd 2b37 113c
000002b0: bb11 bb3d cbd3 ad3c 5517 40bc 7eac 91bd
000002c0: d97f 25bd 7d57 a93c e84f 0b3c 0356 cb3c
000002d0: ec79 763d 9e5e ab3b 3d6b 173d dda2 1e3c
000002e0: 050d 613a 935a b23c 2071 7a3d b023 abbd
000002f0: 0ede 15bd eb41 41bd 507a 82bc c9b5 883d
00000300: 499d d53d 3b06 193d 2cb6 313d 3039 bebb
00000310: 3986 a33d a244 d5bc 061d 5f3d c185 533d
00000320: 6623 b2bd 8b00 023d 75c3 c6bc 59f8 d33d
00000330: 8a97 9fbc a6fc 7e3d a9f1 c43d f676 d03d
00000340: ccfc efbd 530b b43d 07aa e0bc b548 053e
00000350: 7f86 f8bd ebb2 f8bc cd90 893d a50c d1bc
00000360: ab6a d33d cb32 dfbc 3174 bcbd e053 243d
00000370: d2fa 3ebc c2f3 0a3d 8136 b3bd 8dd6 e8bd
00000380: 7b79 00bd 416f 773d 849e 03be 3f3b 883d
00000390: 0dd7 0bbd 303e 5d3c 0aed a53d 060a 623c
000003a0: a23b 1c3d c749 66bd 6f04 2d3d 5e73 7c3d
000003b0: dae5 073e ba53 cd3d 2d0e 9c3c 0735 bcbd
000003c0: 7a0c 48bd 9480 debd f27a 2c3d de59 313c
000003d0: f458 a23d 5cd6 f53d 29b1 1fbb 84d3 c6bd
000003e0: a9ac 62bd 2cb7 773d 0ba9 b43d e255 41bd
000003f0: 3b05 f83d 7d1e 7f3d 81b0 23bc 4191 80bd
0.102671094 -0.08169771 0.058817428 0.095755495 0.10041189 -0.05643519 -0.033105113 -0.10715602
-0.004534736 0.08106465 -0.026442222 0.050015617 -0.106201015 -0.08519544 0.047117367 -0.15708423
0.07173191 0.056996502 -0.022142189 -0.025046952 0.024563028 0.09915168 0.08489686 -0.10844586
0.13374905 -0.0010295194 -0.13692835 -0.0077720084 -0.10087932 -0.05179523 -0.05431635 0.010379202
-0.07765197 0.08607053 0.039293095 -0.064548776 0.0729296 -0.071514025 0.06777967 -0.024579693
-0.067218564 -0.03626346 -0.10267937 0.0463803 0.10219808 -0.021396665 0.016857708 0.032165527
0.004964814 0.05245756 0.017370183 0.06816938 -0.070511915 0.037073504 0.0044320296 -0.042729996
-0.06243703 -0.047470488 -0.05415332 0.07523433 -0.047626544 -0.03915749 0.04740995 0.08317761
0.027366947 -0.057818078 -0.04627088 0.1152493 0.10155169 -0.037752364 -0.10169881 -0.004974523
0.11001018 0.107610516 0.023627598 -0.0029746275 0.10983574 0.11330295 -0.06737631 0.05482274
-0.073642574 0.11894858 -0.049451213 0.0024065964 -0.09548482 0.122771755 0.0442228 -0.00072732876
0.07585987 0.1010584 0.034801397 -0.02329027 -0.06546947 0.08623629 -0.01705387 -0.11484833
0.09663123 -0.08289033 0.04116861 0.025293183 -0.07609279 -0.10921591 0.05280955 0.06454751
-0.100933865 0.04095439 0.023793135 -0.08629996 0.096989736 0.020434935 0.12565042 0.017455677
-0.041715544 -0.06042872 -0.10061556 0.040991507 0.017090876 0.13316251 -0.10598932 0.0814186
-0.027527021 0.09684993 0.04906594 -0.015949268 0.048387863 -0.0037246803 -0.011251334 -0.12017408
-0.07981962 -0.09999194 -0.07433421 -0.0853136 -0.011031774 -0.08323115 -0.012830418 0.13444038
-0.053480424 -0.042361856 0.09733139 0.053607307 0.05311988 -0.019727103 -0.13162893 -0.023591569
-0.022259504 0.03349852 0.09781779 0.071931444 -0.012804253 0.13117737 0.020211166 0.044111192
0.106176786 -0.121742226 0.0057442156 0.0024729494 0.053165685 0.1253224 0.033216484 -0.0876017
0.0154544 0.14297844 -0.10381728 -0.09848185 0.05683324 -0.0026763591 0.07721694 -0.08930156
0.0001482547 0.086875744 -0.1039276 0.008863251 0.09134241 0.021219155 -0.011724313 -0.071129784
-0.04040513 0.0206716 0.008502938 0.024821287 0.060174868 0.005229785 0.036967505 0.009682384
0.0008585009 0.021771705 0.06114304 -0.08356416 -0.03658872 -0.047182005 -0.015927464 0.06675298
0.104303904 0.037359457 0.043386623 -0.005805157 0.07984585 -0.026033703 0.05447104 0.05164123
-0.08698158 0.0317388 -0.024263123 0.10350103 -0.01948144 0.062252663 0.096164055 0.1017894
-0.11718139 0.087912224 -0.027424825 0.13016017 -0.12135028 -0.030358752 0.06717072 -0.025518725
0.1032308 -0.0272459 -0.09201849 0.040119052 -0.01165648 0.03392387 -0.0875063 -0.11369047
-0.031365853 0.060408834 -0.12853438 0.06651925 -0.034140635 0.013503596 0.08101852 0.013796335
0.038142808 -0.056222703 0.042240556 0.06163346 0.13271275 0.10025735 0.019049728 -0.09189802
-0.048840024 -0.10864368 0.042109437 0.010824649 0.07927123 0.120037764 -0.002436707 -0.09708312
-0.055340443 0.06047742 0.08821305 -0.047201045 0.12110373 0.062284935 -0.009990812 -0.06277705

encoder.layers.0.self_attn.out_proj.bias f4 [64]
00000000: 07c6 193d 805c c9bb be79 053d de75 803c
00000010: 1d5e 2cbc c108 193c 60bc 97bc 04a2 13bb
00000020: e148 d0bc 4dbf ecbc 0e31 c0bc d6fc 5f3c
00000030: 06ea 3f3c 80da 11bc 8c3b 713c 9c85 b0bc
00000040: 888d c5bc 688b 673c 55bc c23b b0db 11bc
00000050: f27d a13b 1ba0 16bc e965 ccba 2021 343c
00000060: 9146 1abb e748 4a3c 2003 80bb 76cd bbba
00000070: d22d a43c 01a9 093d 5301 60bc c233 f2bc
00000080: c72e 833c 9551 8fbc 57ef 2dbc 6d93 fe3c
00000090: 29e9 a03a ce42 923c 358e 3dbc 4f20 513c
000000a0: 8367 90b9 9427 b53b 7118 19bd 0f48 a83c
000000b0: 00f3 8abc 9509 c83c cffe 533c 9986 123d
000000c0: 5eff b43c 8d89 0c3b cd12 1c3a c544 88bc
000000d0: b4a5 1ab9 408d f03c 7cec 78bc 12f8 303d
000000e0: 3e27 393c a0d4 1a3d 6353 0abc e537 f3bc
000000f0: 9806 c33a 3fab 793b 06b6 293c 04c3 92bc
0.03754237 -0.00614506 0.032586806 0.015681203 -0.010520485 0.009340466 -0.018522441 -0.0022526989
-0.025425376 -0.028899813 -0.023460891 0.013671121 0.01171351 -0.008902192 0.01472367 -0.021548085
-0.024115339 0.014132358 0.005942861 -0.008902475 0.004928344 -0.009193446 -0.0015594336 0.010994226
-0.0023540596 0.012346483 -0.0039066225 -0.00143282 0.02004138 0.03360844 -0.013672191 -0.029565696
0.016013516 -0.017494956 -0.010616145 0.031076157 0.0012276518 0.01785412 -0.011569549 0.012764051
-0.00027542943 0.0055283997 -0.037376825 0.020542173 -0.016961575 0.024418632 0.012939169 0.035772894
0.022094425 0.0021444291 0.0005953729 -0.016634354 -0.00014748314 0.029364228 -0.015193101 0.04320533
0.01130086 0.03780043 -0.0084427325 -0.029689739 0.0014879284 0.0038096455 0.010358339 -0.017915256

encoder.layers.0.linear1.weight f4 [256, 64]
00000000: f065 1a3e 23d9 3d3d a27f a13d d20e 06be
00000010: 308b b4bd 6d27 c23d b440 5ebd 0b14 f7bd
00000020: 072c d63d f914 783b dab9 253d 1962 d5bd
00000030: 09e8 473d 85de 8bbd e210 843d 88c5 a7bd
00000040: 21e5 263e cf76 adbd 960b a13c 78dc a3bd
00000050: ac9e 803d 175d 98bc b28c 28bd ab1a 923d
00000060: f649 383c f3ae 1dbe 7791 0dbe 9800 ca3d
00000070: 1d17 febb bdc0 5d3d 5de1 8bbd ef44 dfbd
00000080: a883 123d d6c3 33be fab5 00be 7e39 f83b
00000090: 22c0 ac3d 0ee1 4aba 73a0 0dbc 181f b73d
000000a0: e09a 2c3d f6b3 75bd a957 853d 0904 ecbc
000000b0: 02e7 e8bd 053f 0bbe 5808 0c3e 9de7 213e
000000c0: 0a73 b93c 5fbb e83c 1138 833d 4ec1 0fbd
000000d0: 9fe4 0c3e b670 5b3d 49e9 78bd 7e08 6e3d
000000e0: 0fde a0bd a940 82bc 61cb a73d 5e7d b43c
000000f0: a2bb 8bbb 8a16 173d f932 31bd 12ed de3d
00000100: f791 45bd 89fe b13c 749b 67bc 5e76 08be
00000110: 58ad b9bd 784d bdbd 087e 43bc 2715 c2bc
00000120: 65b5 8e3d fb1e ff3b 4a4e d43c 896e 06be
00000130: 0eaa eabc 77f3 d6bc 7e37 dfbd e13f 123e
00000140: 8845 093e d526 b8bd aeb4 933d 269d a0bd
00000150: 1fcb 8e3d 4c68 dcbd 8e78 59bd 5a8f 293d
00000160: d209 d53d e22a 4b3d d9ce 8d3c ad3b 413d
00000170: 9811 d8bd fe4b 39bc 42fe 0e3d 1cde 673d
00000180: 4cb8 a83d 37ea cbbc 138a 0abe 52d1 9b3d
00000190: a505 a6bd 9dea eebc e1a7 f5bb b6d0 8d3c
000001a0: 8c0b 0bbd f610 ab3d cff3 863d 645d 17bd
000001b0: 993d 9a3d 5369 c9bd 6067 fcbd ee3c 833d
000001c0: 704d 38be 1ec2 bb3d 6a67 f6bd 34e1 c6bd
000001d0: e174 58bd 2577 26be 45b6 80bc 486e b7bd
000001e0: 7bdb 8e3d cf50 a5bd b118 20bd 8598 7cbc
000001f0: 140c d93c 0a5f b7bc c8c1 fcbd 9a38 8d3d
00000200: faab 763d 2b02 1bbb 3185 a4bd 7040 043d
00000210: ca9f f0bd 82b6 0d3e 040d ffbd ba07 77bd
00000220: 3294 52bd 72d0 4cbe 9a31 fabd d34c e2bd
00000230: 6803 c63d 9ccf 373d 5ed0 b8bc 2697 a0bd
00000240: ab7c 0b3e 6cdd fc3d 3ba3 b9bd c2ed 2e3c
00000250: 4c1d 0c3d 4d85 be3c c420 e03c 9f48 3d3d
00000260: 6f53 6c3d 8328 b93d 1b11 0f3d cb8f b13d
00000270: 771f 4ebd e8c9 b13d 337a 55be 85db f7bc
00000280: 8731 c93b d45b 39be 99ad 223d 24eb ca3d
00000290: b825 a13d bb7f f53c 0f01 13be 6451 423e
000002a0: 4884 dcbd 0f31 83bb 809e ae3d cbeb 50bc
000002b0: 42d8 e53d c51e c0bd df5a 323e 7de3 de3d
000002c0: f773 b9bc c8f3 bf3c e294 d43d d081 10be
000002d0: 05d4 b1bd cfa3 893d d35b 0abe d223 77bc
000002e0: b629 0a3e 1f7c fa3d 652e 41bc c8ce ae3d
000002f0: 8e38 db3d fca9 603e 0f2f 3e3b 8300 193d
00000300: f227 9d3d c65b 093d e8df bcbd 9cab 253c
00000310: 3ace 4ebd 3446 a2bd 48c2 833d a976 943d
00000320: 95fb 46bd 6a8b c8bd 907f caba d471 0bbc
00000330: c85c a13d bbc2 613d 7085 66bd 2239 44bd
00000340: 596d d03d b400 77bd 6ba5 45bd 0e6e f23d
00000350: ece6 1fbc 2a7c 41bd 06c0 133d b2a0 ce3d
00000360: 81ec 9ebc ee04 cbbc 7717 d5bd 38e3 b83d
00000370: 270b 2d3c 4305 bbbd b5e1 9abd d4e6 f5bd
00000380: 6119 30bd ec0c 95bd 269a 45bc 8738 d93d
00000390: 362b 063e f0ed 6e3d 17a1 abbd 1167 bbbd
000003a0: ae1b cabd 129a 363d e07f 32bd b7df 993c
000003b0: 3e0f d3bc 1a2e 803d a5a1 85bd a996 eabc
000003c0: 7151 d73d f916 b93d 54d9 163d 4e2d ba3d
000003d0: faae 1ebd cd0c f4bd 8a6f 3e3d 6d83 0a3e
000003e0: 3eb8 843c 438a 103d 25b4 aa3c 4d76 b13d
000003f0: a517 01be 052a 873d 24bc a6bd 919c b5bd
0.15077949 0.046349656 0.07885672 -0.13091591 -0.088156104 0.09480176 -0.054260924 -0.1206437
0.10457616 0.0037854298 0.040460445 -0.10419101 0.04880527 -0.068295516 0.06448533 -0.08191973
0.16298343 -0.084699266 0.019658845 -0.080010355 0.06280264 -0.018599076 -0.041149803 0.07133993
0.011248102 -0.15398769 -0.13825022 0.098633945 -0.00775422 0.054138888 -0.06830094 -0.1090182
0.03577009 -0.17555174 -0.12569419 0.007575213 0.08435084 -0.0007739224 -0.008644211 0.089414775
0.042139888 -0.059986077 0.065108605 -0.028810518 -0.11372186 -0.13598259 0.13675058 0.1581101
0.022637863 0.028409658 0.06407178 -0.03509646 0.13759087 0.053574286 -0.060769353 0.058113568
-0.07854854 -0.015899973 0.08193088 0.022032436 -0.004264311 0.03688673 -0.043261502 0.10885061
-0.048234906 0.021727817 -0.014136184 -0.13326403 -0.09066266 -0.092432916 -0.011931904 -0.023691727
0.06968192 0.0077856756 0.025916237 -0.13128103 -0.028645542 -0.02623914 -0.10899256 0.1428218
0.1340543 -0.089917816 0.07212196 -0.07842474 0.06972336 -0.107620806 -0.053093486 0.041396476
0.10402264 0.049601443 0.017310547 0.047176052 -0.10550231 -0.011309622 0.034910448 0.056608304
0.08238277 -0.024891956 -0.13529234 0.07608284 -0.08106545 -0.029164607 -0.0074968194 0.017311435
-0.03394656 0.083528444 0.065894715 -0.0369543 0.0753128 -0.09834542 -0.12324405 0.06408106
-0.1799829 0.09167884 -0.120314434 -0.09710923 -0.05284584 -0.16256388 -0.015711913 -0.08956581
0.06975456 -0.08072054 -0.039086048 -0.015417223 0.026495017 -0.022384185 -0.12341648 0.068955615
0.060222603 -0.0023652415 -0.08033217 0.032288015 -0.11749227 0.13839152 -0.124536544 -0.060310103
-0.05141086 -0.2000139 -0.12216492 -0.11049809 0.096686184 0.044875726 -0.022560295 -0.07841329
0.13621776 0.1234692 -0.09064337 0.010676803 0.034207627 0.023256922 0.027359374 0.046211835
0.057696756 0.0904093 0.034928422 0.086700045 -0.050322976 0.08681089 -0.20847397 -0.030256042
0.0061399373 -0.18101436 0.039716337 0.09908131 0.078685224 0.029968133 -0.14355873 0.1897636
-0.10767418 -0.004003651 0.08526325 -0.01275153 0.112228885 -0.09380869 0.17417477 0.10883234
-0.022638304 0.023431674 0.1037996 -0.1411202 -0.08683018 0.06720697 -0.1351159 -0.015084224
0.13492474 0.122307055 -0.0117908465 0.08535534 0.10704146 0.21939844 0.0029019748 0.037354004
0.076736346 0.033534788 -0.09222394 0.010111716 -0.05048964 -0.079235464 0.064335406 0.07249195
-0.04857977 -0.09792216 -0.0015449394 -0.008511025 0.07879025 0.05511735 -0.0562796 -0.04790605
0.101771064 -0.060303405 -0.048253458 0.118373975 -0.009759646 -0.047237553 0.0360718 0.10089244
-0.019399883 -0.024782624 -0.10404866 0.090277135 0.010561741 -0.09131863 -0.075625814 -0.120069176
-0.042992953 -0.07277855 -0.012060678 0.10606485 0.13102421 0.058332384 -0.08380335 -0.09150518
-0.09868561 0.044580527 -0.043578982 0.018783433 -0.025764104 0.06258793 -0.06524972 -0.028636293
0.105135806 0.09037585 0.036828354 0.090906724 -0.03874109 -0.11916504 0.04649309 0.13526697
0.016201135 0.035288107 0.020837853 0.08665142 -0.12606676 0.065998115 -0.08141354 -0.08867753

encoder.layers.0.linear1.bias f4 [256]
00000000: 26a6 c0bd 2044 d5bc 1c4f 33bc 3810 1abd
00000010: 0389 bdbd 8b41 b4ba 721f c03d 83b0 9cbd
00000020: ab69 aabd 53c5 bcbc f036 0e3e 585b 873d
00000030: 8a06 55bd 2f93 50bd 3cfe f03c b642 c9bd
00000040: 5539 bb3b 5e77 02be c269 babc 6a1d 543d
00000050: ebad e6bd 1f5e 363d 3796 843d 9a06 383d
00000060: 0e4a 82bd 8e99 d0bc df65 c73d 82ba a7bd
00000070: 52c7 5038 c71c 13bc d6fb c4bd d1dc b13d
00000080: 90dc 123d ea14 58bd ed67 e8bb 521c bdbb
00000090: e701 933d d55d e7bd 4b34 e43b 75a9 93bd
000000a0: 7757 fe3c fa0f ee3b 215c 84bd 59e5 533d
000000b0: d51e 503c cc76 28bc c1f0 b53c acfa c1bd
000000c0: 0a70 05be e26a 9bbc b7ae 20bd 6b3d 423d
000000d0: a424 3f3d 1599 0d3d 308e 123d 8163 923d
000000e0: c392 89bc 8749 6abd c0de fbbd 90d5 03bd
000000f0: e8a3 c7bc b339 cabd e07c 94bd 4a41 05be
00000100: 6287 bfbd d320 4bbc e816 b1bc f542 acbc
00000110: d74b e3bd 32eb 97bd 3a86 2ebc fc3e d9bd
00000120: 5753 cbbd ff00 263d 764d c23c d095 b0bd
00000130: cb76 eebc 1a3a 733d 5953 97bd d99f 2ebd
00000140: ffc8 44bd 18d5 663d 06bf e3bc db3b dbbc
00000150: b4ca b4bd 3ecf a43b 6966 04be b28a e8bd
00000160: c1f3 f0bd 0db9 a9bd 20e8 b8bc 11e3 72bc
00000170: 7cdd cfbd 0a09 c1bd 6b24 14be e5a1 d13d
00000180: 6211 9fbd ae35 f1bc e845 6abc 0d15 543d
00000190: 99e2 5a3d f444 883c a329 bd3d 2d26 a13d
000001a0: d860 bb3d 9215 5abd baa1 4e3a c694 ebbd
000001b0: c4e3 62bd d85e 6a39 228c e53d 4c7e 563d
000001c0: 3ab8 ca3d f050 973d da5b 7abd 8617 15bc
000001d0: 2685 14bd 510e 293c 174d 493c f70e edbc
000001e0: 688b 95bb a2cc 7fbd 2243 de3d ded6 42bb
000001f0: f99c 933d dbe3 bcbb 4707 bbbd 2a81 883c
00000200: ed60 fcbd a7e4 f03d f836 223d 6bbb 1e3c
00000210: 25d6 c23d d0c9 5c3d 1379 78bd 250b c1bd
00000220: 58b2 fdbd 8098 333c f43d 973d 7961 99bd
00000230: 5006 e7bd 1fc1 92bd b1b3 b93d 4d49 8f3d
00000240: 156d 82bd eaf8 13bd 103e c4bd cb3f 653d
00000250: 24fa e3bd e014 cd3a 2885 913d 3b48 a3bd
00000260: fe8f fdbd 63e5 8c3c 08ea 913c c643 a2bd
00000270: a31e eebd fd07 afbd cd38 8f3a 7e99 0abe
00000280: d2ff cf3c 1ec8 18be 8b84 933d 0687 ab3d
00000290: 1611 a33d 487d 0abe 9590 b9bd 57f5 ec3c
000002a0: d56d 983d 78bb 043d 9c86 17bd 8b40 9c3d
000002b0: 4082 dabd 49d1 1ebc 066c bfbd 1142 1bbe
000002c0: 89fd be3d 85e6 183b 6e84 bb3d cee5 4f3d
000002d0: 0cf4 ebbd 4020 3abd 2c04 54bd 9c87 99bd
000002e0: b376 bd3d f1d4 0abe 450a 05be 5a2a db3c
000002f0: 2a24 c33d 3abe 2ebd 6daf e23d 2d52 553c
00000300: fec0 b03d ad99 e33c 7d67 11bd 03fb 51bd
00000310: 6974 8a3c f6d1 f3bd 36fd d4bd 8958 16bd
00000320: ea75 5f3d f98b cb3d f201 023d deb9 c5bc
00000330: 5acb 863c 192d bd3d 05cc 993d 316a 313c
00000340: c5a1 c9bc 7c93 a63d 9bb8 b73d ebcf a3bd
00000350: 6b9c 8bbd fc2a 9b3c a3a1 6b3d bd5b 61bd
00000360: 204f c3bd 3bb9 e0bd 835d 9a3d 36a9 5dbd
00000370: 56a4 ebbd 903d 8d3d 79b7 173d c44c 9dbd
00000380: 25cb dc3c d963 11be 2586 04be d670 983d
00000390: ee6a e13c e77c 1fbb b9c2 80bc b74f 523c
000003a0: c955 f7bc 977d d73b bcdf 413d 3e98 88bd
000003b0: 7c73 87bd 12d3 0cbd 8057 a63d 0fac 23be
000003c0: df75 28be 1d97 5ebd 590d cebd d06c 8a3d
000003d0: ae27 c13c a164 463d b89e 0ebe 777c 88bd
000003e0: 356f c03d 099b 2a3d 6642 a0bd 0cde 02bd
000003f0: 8899 a4bc 2e35 b5bd 3711 19be ff7b 933d
-0.0940669 -0.026033461 -0.010944154 -0.037613124 -0.092546485 -0.0013752443 0.09380998 -0.076508544
-0.08320936 -0.02304331 0.13888144 0.06609219 -0.05200819 -0.050921615 0.029418103 -0.09827177
0.0057136216 -0.12740847 -0.022755507 0.051785864 -0.11263641 0.044523355 0.06473964 0.04492817
-0.06361781 -0.025463846 0.09736227 -0.081898704 4.9776696e-05 -0.008979029 -0.096183464 0.086846955
0.035854876 -0.05275432 -0.007092467 -0.0057711983 0.07178097 -0.11297194 0.0069642416 -0.07210056
0.031047566 0.007265088 -0.06462885 0.051732395 0.012702663 -0.01028223 0.022209527 -0.0947164
-0.13031021 -0.018971864 -0.03922912 0.047421854 0.046665803 0.03456982 0.03578013 0.07147885
-0.016793614 -0.057199027 -0.122983456 -0.03218609 -0.024370149 -0.098742865 -0.072503805 -0.13013187
-0.09351994 -0.012397963 -0.021617368 -0.021028021 -0.1109845 -0.07417907 -0.010652119 -0.106077164
-0.09928005 0.040528294 0.023718577 -0.086223245 -0.02910938 0.05938158 -0.07388944 -0.04263291
-0.048043247 0.056355566 -0.027801048 -0.02676194 -0.08827725 0.005029588 -0.12929691 -0.11354579
-0.11765242 -0.08287249 -0.022571623 -0.014824645 -0.10149667 -0.09425552 -0.14467017 0.10235957
-0.077669874 -0.029444542 -0.0142988935 0.051777888 0.053438757 0.016634442 0.09236457 0.078686096
0.09149331 -0.053243227 0.00078823755 -0.11502986 -0.055392995 0.00022351311 0.11208369 0.05236654
0.0989842 0.073884845 -0.061122753 -0.009099847 -0.036259793 0.010318355 0.012286446 -0.0289378
-0.0045637377 -0.062451012 0.10852648 -0.0029730122 0.072076745 -0.005764467 -0.091322474 0.016663153
-0.123231746 0.11762362 0.039603204 0.009688239 0.09513501 0.0539034 -0.06066234 -0.09425954
-0.12387532 0.010961652 0.073848635 -0.074892946 -0.11280501 -0.07165741 0.090674765 0.06996403
-0.06368462 -0.036126055 -0.0958215 0.05596904 -0.11131695 0.001564648 0.07105476 -0.07972761
-0.1238098 0.017199224 0.01781179 -0.07923083 -0.11626937 -0.085464455 0.0010926962 -0.13535115
0.02539054 -0.14920089 0.07203015 0.08375363 0.07962243 -0.13524354 -0.0906078 0.02892558
0.07442824 0.032405347 -0.036993608 0.07629498 -0.106693745 -0.009693452 -0.09346776 -0.15161921
0.09325702 0.002333076 0.09156118 0.05075627 -0.115211576 -0.045440912 -0.05176179 -0.074965686
0.09251156 -0.13557793 -0.12992199 0.026753593 0.09528382 -0.042661883 0.11068616 0.0130200805
0.0863056 0.02778324 -0.035499085 -0.051264774 0.016901212 -0.11905281 -0.10399859 -0.036705527
0.05455581 0.09938807 0.031740136 -0.02413648 0.016454387 0.09237117 0.07509617 0.010828541
-0.02461327 0.08133599 0.089707576 -0.079986416 -0.06816944 0.018941395 0.057527196 -0.05501913
-0.09536576 -0.1097283 0.07537367 -0.05411645 -0.11505954 0.06896508 0.037040208 -0.076806575
0.026952336 -0.14198245 -0.12941797 0.07443397 0.027516808 -0.0024335922 -0.015717851 0.012836388
-0.030192273 0.006576251 0.04733251 -0.06669663 -0.06613824 -0.03438098 0.08122158 -0.15983604
-0.16451214 -0.05434333 -0.100611396 0.067590356 0.023578491 0.04843581 -0.13927734 -0.06664365
0.09396211 0.04165176 -0.078251645 -0.03195004 -0.02009274 -0.08848034 -0.14947973 0.07201385

encoder.layers.0.linear2.weight f4 [64, 256]
00000000: 8e8b 003b 2840 443d 5003 3ebd 1553 18bd
00000010: 02cd 343d 9a12 fbbc 58b5 90bd 5eb6 483d
00000020: e5ee b5bd 7105 5c3d fb8b 80bd ff1e 2e3d
00000030: 612c e6bc b792 94bc e2f9 223d aa92 303d
00000040: bf41 49bc bbe4 22bd 5b3c 2bbc 40dd 40bd
00000050: d028 9dbc dad2 84bc 2659 f43c 4c0d 743c
00000060: 61cf 533d 6b3c 3fbd bd16 e73c 7e70 5ebc
00000070: 429f ec3c e3cd 2d3b 36eb 5bbc f35c a43d
00000080: 7efc 53bd af35 5f3d 4280 343c 3b8f 553c
00000090: daec 4f3d ffb0 45bd 2e33 a9bc e001 623c
000000a0: 7d21 dd3b 78f4 7d3d 4afb f03c e1e5 423d
000000b0: 2345 9d3c b739 353d 149d a0bd 677d 9ebd
000000c0: 81d0 183d 5340 22bd fd89 a1bc 25b9 aebc
000000d0: 2a9d babd b3d2 cabc 5e5c 28bc d5ea 32bd
000000e0: 1591 b53c aab5 6d3d 194b c3bc b0a2 c23c
000000f0: c269 473d 0bcf 633c 6b56 4ebc ff65 da3d
00000100: 446e c33c 474a 46bd 6d10 6f3d aecc c6bc
00000110: 2ee4 50bd b1d2 85bd 8c76 87bc 9e72 c0bc
00000120: b6ed 80bd 3603 2bbd dfb9 eb3b db3f db3d
00000130: 285d 52bc 762e 7cbc 5f9c 10bd db59 c23c
00000140: a5ed 853c ff65 d23c 85dd ae3c 4dca 733c
00000150: 6867 063d d578 4e3d d3e7 8cbd bf78 e9ba
00000160: 766b 2a3d 7fff 8f3c 934f b1bc 76af fcbd
00000170: d850 c63c c573 313d 740a 173d 7f0e b23d
00000180: 8322 cdbc 8b23 e2bb 9534 ca3c 114c 8d3d
00000190: b415 3dbd 5d60 483d 46bd d23c 67f6 4a38
000001a0: b178 f43b b089 23bd da4c 0ebc 83a3 96bc
000001b0: 0958 26bc 3959 773d 52b8 0cbd 574e 973b
000001c0: 9b73 803b 6db1 733d 80ab 163d 44b5 893d
000001d0: cb9a 623d 28da 3d3d 60d8 bebd 8577 133c
000001e0: 7c19 c43c 7871 acbc ea6d 92bd b63a cbbc
000001f0: 4672 15bd d949 94ba 8e71 1d3d e106 79bd
00000200: 423c fdbc 12f9 debd 41b8 413b 793f 263d
00000210: 36c1 963c de56 74bd 7908 7f3d 5429 2a3b
00000220: 6d39 133c c417 1ebd 9202 f93b 315b a0bc
00000230: fba0 7cbd f742 20bd f1f9 663d d506 7cbd
00000240: 603c e1bb 1a1c 58bd b783 f83c f911 ac3c
00000250: 3edc ec3b 4efc 5fbd e157 e1bc 72da 9fba
00000260: 56ee 0f3d 8050 11bd 8698 f7bc 5b90 89bc
00000270: b5fc 443b 1825 e7bd 2217 713c b222 b2bc
00000280: 0d86 423b 5989 19bd 6443 08bd 05bd 2c3b
00000290: 8d86 99bc 5088 013d bcbe ff3c eba2 aa3d
000002a0: d49e 1d3d c181 31bc 5ed2 833c 8744 043c
000002b0: a158 5f3d b231 153d 4fe1 75bd fbe4 d43d
000002c0: 33d1 34bc 7f87 b8bc 7645 573c f180 583d
000002d0: de47 09bb c67c e4bc 0f22 b13d 51ce 77bc
000002e0: 5ba8 b7bc adf6 253d 7008 9dbb b22b 0f3d
000002f0: 6840 c1bd e11f 3cbd 47d2 85bc 17a0 91bb
00000300: 4a53 95bc af72 8d3c b4f6 f7bc 0178 8fbd
00000310: f2d8 653d a9fc c0bc 4572 9ebc 3bd8 14bd
00000320: 1e0a 8ebc 8d8d 3d3d baed 8a3d 3e96 233d
00000330: 0472 143d 68a6 d43c 1dfb d2bc 485e 75b9
00000340: 46a2 05bc 111b 053d f7f3 54bb bdac 64bd
00000350: 6fdf 1dbd 05ce a83c d2c4 35bc e3ad 353c
00000360: 405a 3e3c a8dc 7dbd 808e ac3c 7588 ddbc
00000370: 6eee 85bc 551e fa3c 2828 ce39 908e 9e3c
00000380: 78f0 153d 7cee 233d d8d8 c4bc 7abd 2d3c
00000390: bc3b 22bd 2174 3bbc 3e35 fa3c 570f 49bd
000003a0: 841a cbbc 61c8 243d f6aa a73d 06db 83bc
000003b0: 98ed 7c3d 8f37 81bd 1318 7cbd 9121 f23d
000003c0: 7c85 a73c 67cb b93c 5539 0bbc 0aa1 75bc
000003d0: 5dbe 0bbd 9bb5 343d d7de 553d dabe 01bc
000003e0: 7a99 ae3d d452 3b3d 6fa4 0c3a a974 c93c
000003f0: 407d 1fbd 6366 7a3d 3458 80bb 5fee dd3c
0.001961443 0.047912747 -0.046389878 -0.03718861 0.044140823 -0.030648518 -0.070658386 0.049002044
-0.08883456 0.053716127 -0.06276699 0.04251003 -0.028097333 -0.018136365 0.039789088 0.04310862
-0.0122837415 -0.039768916 -0.010451402 -0.047086 -0.0191845 -0.016213823 0.029827666 0.014895748
0.051711444 -0.04668848 0.028209085 -0.013576625 0.028884534 0.0026520423 -0.013422778 0.08025541
-0.051754467 0.054494556 0.011016907 0.013034637 0.05076299 -0.0482645 -0.020654287 0.013794392
0.006748377 0.06200072 0.029416699 0.04758251 0.019198006 0.044244494 -0.0784246 -0.07738762
0.03730822 -0.039612126 -0.019719118 -0.021328518 -0.09112008 -0.024758672 -0.010275928 -0.043680985
0.022163907 0.058034576 -0.02383952 0.023759216 0.048684843 0.013904343 -0.012593846 0.106639855
0.02385629 -0.04841068 0.058365274 -0.02426752 -0.05099886 -0.06534327 -0.01653602 -0.023492154
-0.0629534 -0.04175111 0.0071937884 0.10705539 -0.012839593 -0.0153919365 -0.035305377 0.023724487
0.01634867 0.025683401 0.021345863 0.014879775 0.03281346 0.050408203 -0.068801545 -0.0017812474
0.04160639 0.017577885 -0.02164439 -0.12338154 0.024208471 0.043323297 0.036875203 0.08694171
-0.02504087 -0.0069012097 0.024683276 0.06899274 -0.046163276 0.048920024 0.025725018 4.8390033e-05
0.0074606766 -0.03992623 -0.008685315 -0.018388515 -0.010152825 0.060387824 -0.03435547 0.004617493
0.0039200312 0.05949538 0.03678465 0.06724027 0.055323403 0.04635063 -0.09318614 0.009000664
0.023937933 -0.0210502 -0.07149871 -0.024808269 -0.036485933 -0.0011313512 0.038438372 -0.060797576
-0.030912522 -0.1088735 0.0029559287 0.040587876 0.018402677 -0.059653156 0.06226394 0.0025964575
0.008985859 -0.038596883 0.0075991834 -0.019574733 -0.06167696 -0.039126363 0.056390706 -0.061529953
-0.0068736523 -0.052761175 0.030336244 0.021004664 0.0072284034 -0.054683976 -0.027507724 -0.0012195839
0.035139404 -0.03547716 -0.030224096 -0.016792467 0.0030057852 -0.11286372 0.014714988 -0.02174506
0.0029681951 -0.0374845 -0.033267394 0.0026357782 -0.018740917 0.03162414 0.031218879 0.083318554
0.03848155 -0.010834158 0.016091522 0.008072979 0.054527882 0.036424346 -0.060029324 0.10395237
-0.011036205 -0.022525547 0.013139119 0.052857343 -0.0020947377 -0.027891528 0.08649074 -0.015124873
-0.022419145 0.04051845 -0.0047922656 0.03495378 -0.09436113 -0.04592884 -0.01633562 -0.004444133
-0.018228192 0.0172666 -0.030269004 -0.07005311 0.0561151 -0.023557978 -0.019341597 -0.036339026
-0.017338809 0.04627757 0.06783624 0.039938204 0.036241546 0.025958255 -0.025754506 -0.00023400143
-0.008156365 0.032496516 -0.0032494047 -0.0558288 -0.03854316 0.02060605 -0.011094289 0.011088821
0.011618197 -0.061978012 0.021064043 -0.027042607 -0.016349044 0.030532042 0.000393213 0.019355088
0.036606282 0.04002236 -0.02402918 0.010604257 -0.03960775 -0.0114412615 0.030542966 -0.049086895
-0.024792917 0.04023016 0.08186905 -0.01609565 0.061750025 -0.06309425 -0.061546396 0.118228085
0.020449392 0.022679998 -0.008497556 -0.014992008 -0.03411709 0.044118505 0.05221447 -0.007919038
0.08525367 0.045733288 0.00053650787 0.02459176 -0.038937807 0.0611328 -0.0039167646 0.027091203

encoder.layers.0.linear2.bias f4 [64]
00000000: 036e 013d eb2a b4bc f057 6dbb 44a2 f23c
00000010: 30d4 a0ba 7b4a 41bd 45b2 5b3d c76a 2c3d
00000020: 309b 31bd 2961 44bd 14b5 4ebd aeee b73c
00000030: 5fc9 98bc 9d3b 1fbd 5fec 9dbc 843e cd3c
00000040: 24af 8c3d ab71 463c 605d 4c3c ccad c53a
00000050: bb2d f7bc 3757 60bd 7ee8 14bd a143 a53d
00000060: a209 62bd ed77 00bd 2e01 533d 758b 493c
00000070: fe6b 0d3c c681 863d 1756 9cbc f7ab 65bd
00000080: e398 9b3d 753d adbd 1564 51bd 13af 643c
00000090: 9f90 613b 3943 dcbc 6cb5 8eba 6c27 24bc
000000a0: 54eb 33bc 55f9 62bd a23e 1f3d 131a 433d
000000b0: 0136 1abd c33e b43c bd28 ae3d d24a 22bc
000000c0: 8667 843d 3d9b 24bd d883 323d e6ca e53b
000000d0: 9b80 093d ab9a a63c 492b 0d3d 2b61 6a3c
000000e0: f75b 393d 2bbc cc39 c641 debc e2cd 8a3b
000000f0: cd2e 0a3d 97ba 9b3b 5587 26bd f84a bbbc
0.031599056 -0.021993121 -0.0036215745 0.02961839 -0.0012270268 -0.04719017 0.053636808 0.04209402
-0.04336089 -0.04794422 -0.05046566 0.022452679 -0.018650709 -0.03887521 -0.01927775 0.025054224
0.06869343 0.0121120615 0.012473434 0.0015081703 -0.030173173 -0.054770675 -0.036354534 0.0806954
-0.055184968 -0.03136437 0.051514797 0.012301316 0.008631704 0.06567721 -0.01908402 -0.0560722
0.0759752 -0.084589876 -0.051120836 0.013957757 0.0034418476 -0.026887523 -0.0010887808 -0.0100191645
-0.0109814 -0.055413563 0.03887809 0.04763229 -0.03764916 0.022002583 0.08503864 -0.009905534
0.06465058 -0.04018711 0.043582767 0.007012713 0.033569913 0.020337423 0.034465108 0.014305393
0.04525372 0.00039050108 -0.027130973 0.004235969 0.03373604 0.004752468 -0.040656406 -0.022862896
