Adult_MLP_best (1).pt (torch, 575501 bytes, 13 tensors)

net.1.weight f4 [512, 14]
0	0x3e4c9c74	0.19981557
1	0x3e744de9	0.23857845
2	0xbd7863bd	-0.060641993
3	0x3e397c9b	0.1811394
4	0xbcaa5669	-0.020793157
5	0x3d1634d0	0.03667146
6	0xbe2a4334	-0.16627198
7	0x3e31faf4	0.17380887
8	0x3e87853b	0.26468834
9	0xbe3d00b5	-0.18457301
10	0x3e6c98d5	0.23105176
11	0x3d9bfca4	0.07616547
12	0x3e65371f	0.22384308
13	0x3ccbc4d4	0.024874128
14	0x3d5ae989	0.053445373
15	0x3c6f679e	0.014612107
16	0x3e7534c3	0.23945908
17	0x3ce05b35	0.02738724
18	0xbe03fbdf	-0.1288905
19	0x3d7f830e	0.062380843
20	0xbe311d27	-0.17296277
21	0xbd092ff5	-0.033493
22	0xbd874e9f	-0.06606793
23	0x3e300c1d	0.17192121
24	0xbecfe9dc	-0.40608108
25	0xbe170d97	-0.14751278
26	0xbe017af1	-0.12644555
27	0xbde1f258	-0.110325515
28	0x3c5c0fca	0.013431499
29	0xbe8a1467	-0.2696869
30	0x3e798e40	0.2437067
31	0xbe12def8	-0.14342868
32	0x3e4d8927	0.2007185
33	0x3dc1fb0a	0.0947171
34	0xbd48ef28	-0.049056202
35	0x3e4f07d7	0.20217834
36	0x3d30a54f	0.0431264
37	0x3e5e58ec	0.21713609
38	0x3c827020	0.015922606
39	0xbdd85dd4	-0.10564771
40	0x3df896d6	0.12138145
41	0xbdb245f5	-0.087047495
42	0x3dd490eb	0.103792034
43	0x3e253e3a	0.16137019
44	0x3e001f53	0.12511949
45	0xbdb2cd3d	-0.08730552
46	0x3e49c256	0.1970304
47	0x3e0080f1	0.12549187
48	0x3e01eb46	0.12687406
49	0xbe413b09	-0.18870176
50	0xbe53f0a9	-0.20697273
51	0xbdce3a5b	-0.10069724
52	0xbeeb6247	-0.45973417
53	0x3e4ef51a	0.20210686
54	0x3d95c962	0.07313801
55	0x3e10b4fb	0.14131539
56	0x3d5c7288	0.053820163
57	0xbd8998f6	-0.06718628
58	0x3e3ead2d	0.18620749
59	0xbe46de59	-0.19420756
60	0x3bee450d	0.007271415
61	0xbe3414cd	-0.1758606
62	0x3d3f010d	0.04663186
63	0xbd4717b7	-0.0486066
64	0x3dccdaec	0.100026935
65	0xbde539db	-0.11192676
66	0x3eb10443	0.34573564
67	0xbe2e7304	-0.17036062
68	0xbdd737b5	-0.10508672
69	0xbe0ebbd5	-0.1393884
70	0x3e95b487	0.29239294
71	0x3e180590	0.14845872
72	0x3e6bc070	0.23022628
73	0xbe3788e9	-0.17923321
74	0xbe8d9331	-0.2765136
75	0xbe965758	-0.29363513
76	0xbe066c35	-0.13127215
77	0x3de91964	0.11381796
78	0x3c5f53be	0.013630806
79	0x3e35f448	0.17768967
80	0xbe8fa19c	-0.28052986
81	0xbe0a0e88	-0.13482106
82	0x3dda4dcb	0.10659369
83	0xbdbbe112	-0.09173788
84	0x3e537f51	0.20654036
85	0xbd815f0b	-0.06316956
86	0x3de48a0e	0.11159144
87	0xbe2e58ba	-0.17026034
88	0xbdeabd11	-0.11461843
89	0x3d60e75e	0.05490815
90	0x3def5bef	0.11687457
91	0xbdfa35f5	-0.12217323
92	0x3e8f2d82	0.27964407
93	0x3e0be525	0.1366163
94	0xbea9825c	-0.3310727
95	0xbdaf8956	-0.085711166
96	0x3e80a2cc	0.25124204
97	0xbcdba537	-0.026812179
98	0xbe01650e	-0.12636206
99	0xbe3bdf5c	-0.18346924
100	0xbe551bc5	-0.20811374
101	0x3da67aac	0.081288666
102	0x3bdcc8d8	0.0067378096
103	0xbe40e79f	-0.18838356
104	0xbce4e2d3	-0.02794019
105	0xbe3a9806	-0.18222055
106	0xbe1e5d84	-0.15465361
107	0xbe44d3f6	-0.19221482
108	0xbed72e47	-0.42027494
109	0xbe5f0a4b	-0.2178127
110	0x3e840509	0.25785092
111	0x3d46e4aa	0.048557915
112	0x3c8fcd4d	0.01755395
113	0xbe14b0b2	-0.14520529
114	0xbdc2e072	-0.09515466
115	0xbe028570	-0.12746215
116	0xbc9c0b0e	-0.01904824
117	0xbed8aa26	-0.42317313
118	0xbd07c0e1	-0.033142928
119	0xbde13ba3	-0.10997703
120	0xbd0fb2dc	-0.035082683
121	0xbdb4ef8b	-0.08834752
122	0xbd64d78b	-0.05586962
123	0xbdafae30	-0.085781455
124	0xbe7a052e	-0.24416038
125	0xbdf1b912	-0.118028775
126	0xbe17f922	-0.1484113
127	0xbe465d0a	-0.19371429
128	0x3e48733a	0.19575205
129	0xbd320f79	-0.043471787
130	0x3e37b880	0.17941475
131	0x3df10ab0	0.117696166
132	0xbe9cc4ce	-0.306189
133	0x3e29f6ac	0.16598004
134	0xbd921d51	-0.07134498
135	0xbcc2984f	-0.023754267
136	0xbe8d1d74	-0.27561533
137	0xbde241fc	-0.11047742
138	0x3d864613	0.06556334
139	0xbd363c3f	-0.04449105
140	0x3e08a6e3	0.13344912
141	0xbe327874	-0.17428762
142	0x3e082986	0.1329709
143	0xbe448df9	-0.19194783
144	0xbcaa750d	-0.020807767
145	0x3dc8c127	0.09802466
146	0x3dc041d3	0.09387555
147	0x3eb380e2	0.35059267
148	0x3e2f7149	0.17133059
149	0xbe435a77	-0.19077478
150	0x3dad11c2	0.08450653
151	0xbd222866	-0.03958931
152	0xbe111e9b	-0.14171831
153	0xbe105f10	-0.14098763
154	0x3ea2d6ea	0.3180459
155	0xbe441fcc	-0.19152755
156	0x3dab0eab	0.08352407
157	0x3df8f621	0.1215632
158	0x3e3f9ef0	0.18712974
159	0xbe48950d	-0.19588108
160	0x3e663745	0.22482021
161	0x3c3f3eb5	0.011672665
162	0x3dc2758b	0.09495076
163	0xbe3077e6	-0.17233238
164	0x3e076f1e	0.13225982
165	0xbc5d3ac8	-0.013502784
166	0xbca0a656	-0.019610565
167	0x3e140525	0.14455087
168	0x3d43630e	0.047701888
169	0xbe0f3f9b	-0.13989107
170	0xbd839bdd	-0.06426213
171	0xbd5d2af0	-0.053996027
172	0x3e178381	0.14796259
173	0xbd7918dc	-0.060814723
174	0xbe1a9b75	-0.15098365
175	0xbde578fe	-0.11204718
176	0xbe5ca83b	-0.2154855
177	0x3d5a0118	0.0532237
178	0x3e94a650	0.29033136
179	0xbe8e09b6	-0.27741784
180	0x3ca3b163	0.019982046
181	0x3dd378c5	0.10325769
182	0x3d802c68	0.0625847
183	0x3c5c17ff	0.0134334555
184	0x3df77f93	0.1208488
185	0x3e4b697f	0.19864462
186	0x3e312755	0.1730016
187	0xbd71dbec	-0.059047624
188	0xbd45ca95	-0.0482889
189	0x3a9771a2	0.0011554251
190	0xbd697216	-0.056993566
191	0xbda6a1ac	-0.08136305
192	0x3e99541d	0.29946986
193	0x3e07420e	0.13208792
194	0x3cfc708c	0.030815385
195	0xbd98c099	-0.0745861
196	0xbc0e0e1a	-0.008670354
197	0xbd27de90	-0.040983737
198	0x3ca187ef	0.019718139
199	0x3d2f576e	0.04280799
200	0xbe7e05dd	-0.24806924
201	0xbd66b9ce	-0.05632954
202	0x3e78e6da	0.24306813
203	0x3dba1b7b	0.09087273
204	0xbdd39379	-0.103308626
205	0xbe32df28	-0.1746794
206	0xbea02eb6	-0.31285638
207	0xbe3adf49	-0.18249239
208	0xbdf1c93a	-0.11805959
209	0x3df706fa	0.120618775
210	0x3e4db070	0.20086837
211	0x3e0bc7a1	0.13650371
212	0xbe5a5024	-0.21319634
213	0xbe64c6d5	-0.22341473
214	0xbd332002	-0.043731697
215	0x3e937ca6	0.28806037
216	0x3d335b21	0.04378808
217	0xbd5ec70a	-0.054389037
218	0x3c8b5559	0.01700847
219	0xbdb4e150	-0.088320374
220	0xbea878e4	-0.32904732
221	0x3dfef16e	0.12448393
222	0xbd953599	-0.072856136
223	0xbdb0d417	-0.08634203
224	0xbeae120e	-0.3399815
225	0x3e564a4b	0.20926778
226	0x3dededd8	0.11617631
227	0x3df65f41	0.12029887
228	0xbe25a79d	-0.1617722
229	0xbed15a0b	-0.4088901
230	0xbe34f399	-0.1767105
231	0x3e474fa4	0.19463974
232	0x3e37a034	0.17932206
233	0x3e569715	0.2095607
234	0x3da5f36f	0.08103072
235	0x3d608fd4	0.054824665
236	0xbd69d8b1	-0.05709142
237	0xbdd20b58	-0.1025607
238	0xbe98a219	-0.2981117
239	0xbe8486ca	-0.25884086
240	0x3ddd94e2	0.10819413
241	0xbde84200	-0.113407135
242	0xbda0c12f	-0.07849347
243	0xbd824a9a	-0.06361885
244	0x3cc56fb2	0.024101112
245	0xbe359030	-0.17730784
246	0xbe0e2d1b	-0.13884394
247	0x3dcae758	0.099074066
248	0xbdf0d856	-0.11760013
249	0x3e0fa1ff	0.1402664
250	0xbd9bde41	-0.07610751
251	0xbe80e9da	-0.25178415
252	0xbdde9f57	-0.108702354
253	0xbe139075	-0.14410575
254	0xbd92aba6	-0.071616456
255	0xbea46ebf	-0.32115743

net.1.bias f4 [512]
0	0xbe473941	-0.19455434
1	0xbcffc31e	-0.031220969
2	0xbe888882	-0.26666647
3	0x3e2c6d42	0.16838554
4	0xbe0b4c85	-0.13603409
5	0x3bcc3770	0.0062321946
6	0xbe3de69d	-0.18545003
7	0x3c5e4eb4	0.013568569
8	0xbe058fed	-0.13043185
9	0xbe845f92	-0.25854164
10	0xbe75d995	-0.24008782
11	0x3e5194f3	0.20466976
12	0x3d47d005	0.048782367
13	0xbc2fbfda	-0.010726893
14	0x3e2c38e0	0.16818571
15	0x3d7e224e	0.062044434
16	0xbd6cf1ff	-0.057847973
17	0x3c980fc9	0.018562214
18	0xbda2ba7e	-0.07945727
19	0xbe818ca9	-0.25302628
20	0xbde36caf	-0.11104714
21	0x3cb4a997	0.022053523
22	0xbde79934	-0.11308518
23	0xbe554f8c	-0.20831126
24	0x3e1d2d92	0.15349415
25	0xbe01d2dd	-0.12678094
26	0x3dbd1c05	0.0923386
27	0x3d173b5d	0.036921848
28	0xbe056744	-0.13027674
29	0x3e3c4527	0.18385755
30	0xbd95b957	-0.073107414
31	0x3cff4d27	0.031164719
32	0xbe53bc45	-0.20677288
33	0x3db804cd	0.08985291
34	0xbe255aef	-0.1614797
35	0x3e0ea756	0.13931021
36	0xbc779762	-0.015111776
37	0xbdd9ccdf	-0.10634779
38	0xbe214d50	-0.15752149
39	0x3dc3cdb8	0.09560722
40	0x3e562552	0.20912674
41	0xb9f29627	-0.0004626971
42	0x3dc1fc14	0.09471908
43	0xbe9fb70e	-0.31194347
44	0xbcfcea46	-0.030873429
45	0xbe333d1b	-0.17503779
46	0xbe67f43b	-0.2265176
47	0xbd2055f3	-0.039144468
48	0xbe1bc5f0	-0.15212226
49	0x3d881994	0.06645504
50	0xbe35b41e	-0.1774449
51	0xbe8c5f55	-0.27416483
52	0xbe51b3ed	-0.20478792
53	0xbeaaa958	-0.33332324
54	0x3d399320	0.045306325
55	0xbe8dbca0	-0.27682972
56	0x3e73561e	0.2376332
57	0x3db07ee7	0.08617955
58	0xbe1d10e1	-0.1533847
59	0xbdad8702	-0.08473016
60	0xbe43a60f	-0.19106315
61	0x3e3bbd0b	0.18333833
62	0xbca60267	-0.020264817
63	0xbda50ff7	-0.08059686
64	0xbdc48b0c	-0.095968336
65	0x3df592b3	0.11990871
66	0xbdab32e2	-0.083593145
67	0x3d46f45d	0.048572887
68	0x3e4468b3	0.19180565
69	0xbd41dcb4	-0.04732962
70	0x3d8bbc20	0.06822991
71	0xbe74747f	-0.23872565
72	0xbe826464	-0.25467217
73	0xbb18bf82	-0.0023307507
74	0xbdab8bd0	-0.083762765
75	0x3c5f2dad	0.01362173
76	0x3d2b502e	0.041824512
77	0xbe49dee1	-0.19713928
78	0x3de58bc9	0.112083025
79	0xbce6a820	-0.02815634
80	0x3e4beb45	0.19913967
81	0x3db1457d	0.08655832
82	0xbd68ff08	-0.05688384
83	0xbd9bc8a7	-0.07606631
84	0xbe1c7252	-0.15277985
85	0x3d057ce4	0.032589808
86	0x3e8b3c24	0.2719432
87	0x3d2766d8	0.040869564
88	0x3e4c5a8c	0.19956416
89	0x3dc8e17d	0.098086335
90	0xbd7f8605	-0.06238367
91	0xbe1b162a	-0.15145174
92	0xbe75a695	-0.23989327
93	0xbdb28811	-0.08717359
94	0x3e7a1f63	0.24426036
95	0x3e8b3bc6	0.2719404
96	0xbdb2153d	-0.08695457
97	0x3e84ac51	0.25912717
98	0x3e28a6f7	0.16469942
99	0xbe73a873	-0.23794727
100	0xbe78fa29	-0.24314179
101	0xbe72d144	-0.23712641
102	0xbd47636f	-0.04867881
103	0x3dbc49eb	0.09193786
104	0x3df65823	0.120285295
105	0x3d879d1b	0.06621762
106	0xbdc601de	-0.09668325
107	0x3e34f614	0.17671996
108	0x3dde0dc9	0.10842473
109	0xbe777b82	-0.24168208
110	0xbe991569	-0.29899147
111	0x3e0ccaaf	0.13749193
112	0x3dbef448	0.09323937
113	0xbe3d1642	-0.18465522
114	0x3d4db95f	0.05022561
115	0xbe850b48	-0.2598517
116	0x3e60947f	0.21931647
117	0x3c5ca73d	0.013467607
118	0xbdbd781c	-0.09251425
119	0x3def830d	0.11694918
120	0x3c9b836e	0.018983569
121	0x3e1af19a	0.15131226
122	0x3d3fe6f8	0.04685113
123	0xbd83654b	-0.064158045
124	0x3d9f562b	0.07780107
125	0x3e0259a4	0.12729508
126	0xbe5010be	-0.20318887
127	0xbdceb8f6	-0.10093872
128	0x3e1ffc80	0.15623665
129	0xbe005c4e	-0.12535211
130	0x3e203b45	0.1564761
131	0xbe15a3a9	-0.14613213
132	0x3e81a143	0.25318345
133	0xbe4428ec	-0.19156235
134	0x3e1837f6	0.14865097
135	0xbdc4aa48	-0.09602791
136	0x3e59043f	0.21193026
137	0x3e13adba	0.1442174
138	0x3d73cc37	0.059520926
139	0x3db2219d	0.086978175
140	0x3e4cbb0a	0.19993225
141	0xbd8910ee	-0.06692682
142	0xbe1bb69e	-0.15206382
143	0x3d7544c9	0.05988005
144	0xbe61b17e	-0.22040364
145	0x3cb339a9	0.02187808
146	0x3d7489b1	0.059701625
147	0xbe6f4aad	-0.2336833
148	0xbda0267f	-0.078198425
149	0xbb9c3d91	-0.0047680815
150	0xbe9fac1f	-0.31186005
151	0x3e8c98e0	0.27460384
152	0xbc8c537b	-0.01712965
153	0xbeb9cd05	-0.3628923
154	0xbe5ec83e	-0.21756074
155	0xbd359f56	-0.044341408
156	0x3e252c8f	0.16130279
157	0xbd0e8916	-0.034798704
158	0x3e573e1a	0.21019784
159	0xbdbcf0da	-0.09225626
160	0xbe3164ef	-0.1732366
161	0xbddcc730	-0.107801795
162	0xbe791fc7	-0.24328528
163	0x3d2d3b22	0.04229272
164	0x3e41682e	0.18887398
165	0xbe7b04ab	-0.245135
166	0xbe752347	-0.23939238
167	0x3e3ffd2b	0.1874892
168	0xbdef373e	-0.116804585
169	0x3e8c915b	0.27454647
170	0x3e5fb83e	0.21847627
171	0xbe56e4fd	-0.2098579
172	0x3e0b063f	0.13576601
173	0xbea89ebe	-0.3293361
174	0x3e0265c2	0.1273413
175	0xbe15e2d3	-0.14637308
176	0xbd64f665	-0.055899043
177	0x3e673102	0.22577289
178	0xbbc700a9	-0.0060730767
179	0xbda06c13	-0.078331135
180	0x3d7e8d92	0.06214673
181	0xbdecf170	-0.11569488
182	0x3e86e9de	0.26350302
183	0xbe41eb64	-0.1893745
184	0xbd8916f5	-0.06693832
185	0xbe68d862	-0.22738793
186	0xbe0fd085	-0.14044388
187	0xbe19d2f3	-0.15021877
188	0xbe3f8b5b	-0.18705504
189	0xbe455f70	-0.19274688
190	0xbe0e70eb	-0.13910262
191	0xbe0f2d7c	-0.13982195
192	0xbe74883d	-0.23880096
193	0x3d2ba69a	0.04190693
194	0xbe734a1c	-0.23758739
195	0x3e67a258	0.22620523
196	0x3e37bb5a	0.17942563
197	0x3e9dcd2f	0.30820605
198	0x3d1fbb92	0.03899724
199	0xbc80c23a	-0.015717614
200	0xbc456297	-0.012047431
201	0xbde82a11	-0.113361485
202	0x3dcc5d03	0.09978678
203	0x3e0d92f3	0.13825588
204	0x3e222e17	0.15837894
205	0xbe0c8d20	-0.1372571
206	0xbe894f7d	-0.26818457
207	0x3de2739a	0.110572055
208	0x3e6c582f	0.23080514
209	0xbcebaef5	-0.02876995
210	0x3e18a464	0.1490646
211	0x3e689531	0.22713162
212	0x3e0c206d	0.13684244
213	0xbdd310f3	-0.10305967
214	0xbe0d0097	-0.13769756
215	0xbd213979	-0.03936145
216	0xba7e0d1d	-0.0009691285
217	0xbda6283d	-0.081131436
218	0xbe4c5f3b	-0.19958203
219	0xbe8e1a67	-0.27754518
220	0xbdbf667b	-0.093457185
221	0x3e5dc585	0.21657379
222	0x3d8ae05a	0.06781073
223	0xbe87dad0	-0.26534128
224	0xbe4ab0a9	-0.19793953
225	0xbe003607	-0.1252061
226	0x3e9ae713	0.3025442
227	0x3ddaeb10	0.10689366
228	0x3e22c897	0.15896831
229	0xbe68747d	-0.22700687
230	0x3e8425ec	0.25810182
231	0x3e272ea1	0.16326381
232	0xbc90d060	-0.017677486
233	0xbe0e3942	-0.1388903
234	0x3e22da31	0.15903546
235	0xbe9bed42	-0.3045445
236	0xbe286eb2	-0.16448477
237	0x3e0b3eb0	0.13598132
238	0xbe7f5729	-0.24935593
239	0x3dad47e9	0.084609814
240	0x3c2b7405	0.010464673
241	0xbd6bc45c	-0.05756031
242	0xbdf7a79b	-0.12092515
243	0x3e1f8d18	0.15581167
244	0xbe7c9290	-0.24665284
245	0x3e0485b0	0.12941623
246	0xbe7e594d	-0.24838753
247	0x3dc3dfe8	0.09564191
248	0xbe39f1d8	-0.18158662
249	0x3e510fd1	0.2041619
250	0x3d75ee69	0.06004182
251	0x3e39e98f	0.18155502
252	0x3dde8da7	0.10866862
253	0x3d9c281f	0.0762484
254	0xbddd3fc9	-0.10803182
255	0xbe481fe9	-0.19543423

net.3.weight f4 [512]
0	0x3f828541	1.0196916
1	0x3f8764dd	1.0577656
2	0x3f769ee2	0.96336186
3	0x3f80b56d	1.0055367
4	0x3f7ce2d0	0.9878359
5	0x3f854f36	1.0414798
6	0x3f776c07	0.9664921
7	0x3f7ed361	0.9954129
8	0x3f81cdd0	1.0140934
9	0x3f73f94d	0.9530228
10	0x3f764c2c	0.9620998
11	0x3f7c1818	0.98474264
12	0x3f77bc59	0.9677177
13	0x3f791756	0.9730123
14	0x3f81094a	1.008096
15	0x3f812edb	1.0092424
16	0x3f883aef	1.0642985
17	0x3f6f3399	0.93438107
18	0x3f803fef	1.0019511
19	0x3f7cf923	0.9881765
20	0x3f8002bf	1.0000838
21	0x3f7ede6c	0.9955814
22	0x3f845d4e	1.0340974
23	0x3f70842a	0.93951666
24	0x3f8520c3	1.0400623
25	0x3f83a849	1.0285732
26	0x3f7cca26	0.98745954
27	0x3f82c7e0	1.0217247
28	0x3f80f18f	1.0073718
29	0x3f83010d	1.0234696
30	0x3f784005	0.96972686
31	0x3f82c11c	1.0215182
32	0x3f790f8f	0.97289366
33	0x3f7b3f83	0.98143786
34	0x3f6c7fee	0.92382705
35	0x3f7add66	0.9799408
36	0x3f782986	0.9693836
37	0x3f8623a8	1.0479631
38	0x3f799bf8	0.97503614
39	0x3f7c720a	0.9861151
40	0x3f7d8fb2	0.99047387
41	0x3f7b40af	0.98145574
42	0x3f85f8a0	1.0466499
43	0x3f7aeab8	0.980144
44	0x3f801331	1.0005857
45	0x3f750d70	0.9572363
46	0x3f6a601f	0.9155292
47	0x3f811e1b	1.0087312
48	0x3f7cd363	0.9876005
49	0x3f85cb04	1.045258
50	0x3f83542b	1.0260061
51	0x3f72ccb2	0.9484359
52	0x3f734b1e	0.95036495
53	0x3f7ef2c4	0.9958918
54	0x3f742661	0.9537106
55	0x3f84a50a	1.0362866
56	0x3f6e7bf2	0.93157876
57	0x3f857a38	1.0427923
58	0x3f810dd6	1.0082347
59	0x3f872e10	1.0560932
60	0x3f6cdcd1	0.9252444
61	0x3f7557ae	0.95836914
62	0x3f82329c	1.0171695
63	0x3f7f6c3b	0.9977452
64	0x3f846961	1.0344659
65	0x3f71b74e	0.94420326
66	0x3f8046f3	1.0021652
67	0x3f811bdf	1.008663
68	0x3f805fe5	1.0029265
69	0x3f84ab26	1.036473
70	0x3f7a970a	0.9788672
71	0x3f89cc5b	1.0765489
72	0x3f890e22	1.0707438
73	0x3f85e2cf	1.0459841
74	0x3f81d21f	1.0142249
75	0x3f8aa164	1.0830503
76	0x3f8b4676	1.0880878
77	0x3f80b9d6	1.0056713
78	0x3f825342	1.0181658
79	0x3f935189	1.1509258
80	0x3f74db73	0.9564735
81	0x3f823249	1.0171596
82	0x3f7e0efc	0.99241614
83	0x3f806043	1.0029377
84	0x3f80d55f	1.0065116
85	0x3f854ec4	1.0414662
86	0x3f87ca23	1.0608562
87	0x3f7dad69	0.9909273
88	0x3f80db8c	1.0067
89	0x3f860437	1.0470036
90	0x3f7ea4a7	0.9946999
91	0x3f7fa344	0.998585
92	0x3f7d0674	0.9883797
93	0x3f76423b	0.9619481
94	0x3f7bfa52	0.98428833
95	0x3f7b5442	0.9817544
96	0x3f82c57a	1.0216515
97	0x3f7558fb	0.958389
98	0x3f763724	0.9617789
99	0x3f815690	1.0104542
100	0x3f805a36	1.002753
101	0x3f79251d	0.97322255
102	0x3f84bc55	1.0369974
103	0x3f791582	0.97298443
104	0x3f7cb43a	0.98712504
105	0x3f83e34d	1.0303742
106	0x3f82d591	1.0221425
107	0x3f77af04	0.9675143
108	0x3f72f5fb	0.94906586
109	0x3f8117d9	1.0085403
110	0x3f78cf76	0.9719156
111	0x3f8558cc	1.0417724
112	0x3f8f7b4f	1.1209506
113	0x3f8534b0	1.0406704
114	0x3f7d097a	0.98842585
115	0x3f841d35	1.0321413
116	0x3f8628a9	1.0481158
117	0x3f82474e	1.017801
118	0x3f7b87c3	0.9825403
119	0x3f7cf561	0.9881192
120	0x3f8094eb	1.0045446
121	0x3f73a9b3	0.95180815
122	0x3f77d840	0.96814346
123	0x3f7a11f4	0.97683644
124	0x3f7c0df8	0.98458815
125	0x3f78b59c	0.97152114
126	0x3f85e724	1.0461164
127	0x3f8019b3	1.0007843
128	0x3f850425	1.039189
129	0x3f871630	1.0553646
130	0x3f80e842	1.007088
131	0x3f85fd88	1.0467997
132	0x3f85621f	1.0420569
133	0x3f83903d	1.0278393
134	0x3f817e03	1.0116581
135	0x3f702b29	0.9381586
136	0x3f7ede19	0.99557644
137	0x3f7af153	0.9802448
138	0x3f7810c4	0.9690058
139	0x3f80f951	1.0076085
140	0x3f884105	1.0644842
141	0x3f827d6d	1.0194527
142	0x3f85f2b5	1.0464693
143	0x3f7a8156	0.978536
144	0x3f9252a6	1.1431472
145	0x3f7a71a1	0.97829634
146	0x3f78e627	0.97226185
147	0x3f7eed3c	0.9958074
148	0x3f85800b	1.0429701
149	0x3f6b215f	0.91847795
150	0x3f880f1d	1.0629612
151	0x3f73f351	0.95293146
152	0x3f7b7548	0.9822583
153	0x3f7fbcaa	0.99897254
154	0x3f8644db	1.0489763
155	0x3f66f36d	0.9021519
156	0x3f88ae43	1.067818
157	0x3f6d8d39	0.92793614
158	0x3f888e9d	1.0668522
159	0x3f829444	1.0201497
160	0x3f86b3e2	1.0523646
161	0x3f82c6f0	1.0216961
162	0x3f8229a7	1.0168961
163	0x3f81f00c	1.0151381
164	0x3f75eedf	0.96067613
165	0x3f8a04e0	1.0782738
166	0x3f811d94	1.0087152
167	0x3f8571e1	1.0425378
168	0x3f7d8ea8	0.990458
169	0x3f84ed4c	1.0384917
170	0x3f7a8004	0.97851586
171	0x3f7a2d99	0.97725827
172	0x3f79f309	0.9763647
173	0x3f75bb5d	0.9598902
174	0x3f7d16a4	0.9886267
175	0x3f7cf20b	0.9880683
176	0x3f862c8a	1.0482342
177	0x3f77f205	0.9685367
178	0x3f78073a	0.96886027
179	0x3f8368f5	1.0266405
180	0x3f7b9ec6	0.98289144
181	0x3f83ba16	1.0291164
182	0x3f79d71d	0.9759386
183	0x3f8079be	1.0037153
184	0x3f7faeab	0.998759
185	0x3f84f98f	1.0388659
186	0x3f7e5193	0.9934322
187	0x3f845f09	1.0341502
188	0x3f7f9a18	0.99844503
189	0x3f82e7dd	1.0227009
190	0x3f8608b0	1.0471401
191	0x3f6b17c1	0.9183312
192	0x3f711375	0.94170314
193	0x3f717aa7	0.9432778
194	0x3f826943	1.0188373
195	0x3f6c8c8a	0.92401946
196	0x3f78d2f4	0.9719689
197	0x3f8261f7	1.0186146
198	0x3f83536d	1.0259835
199	0x3f7a75ea	0.9783617
200	0x3f6db7f9	0.92858845
201	0x3f81cef7	1.0141286
202	0x3f845828	1.0339403
203	0x3f81229d	1.0088688
204	0x3f6d3ec5	0.92673904
205	0x3f82baa8	1.0213213
206	0x3f86f418	1.0543242
207	0x3f7c592c	0.98573565
208	0x3f73414c	0.9502151
209	0x3f7f8455	0.998113
210	0x3f7721aa	0.9653574
211	0x3f7e987b	0.99451417
212	0x3f770190	0.9648676
213	0x3f7c72b0	0.986125
214	0x3f6ced7c	0.9254987
215	0x3f83d5a5	1.0299574
216	0x3f8a18ef	1.0788859
217	0x3f6e60e3	0.9311659
218	0x3f80bd0f	1.0057696
219	0x3f88096c	1.0627875
220	0x3f7c1a6c	0.98477817
221	0x3f80b020	1.0053749
222	0x3f76401a	0.9619156
223	0x3f850e40	1.0394974
224	0x3f81719d	1.0112797
225	0x3f8640bc	1.0488505
226	0x3f5f5115	0.87233096
227	0x3f80f197	1.0073727
228	0x3f750f91	0.9572688
229	0x3f7abf47	0.97948116
230	0x3f7bc005	0.98339874
231	0x3f7ae59c	0.98006606
232	0x3f835fed	1.0263649
233	0x3f7e93ee	0.9944447
234	0x3f7a3aa4	0.9774573
235	0x3f8a6f23	1.0815166
236	0x3f79bd2f	0.97554296
237	0x3f77a50d	0.9673622
238	0x3f857091	1.0424978
239	0x3f72e898	0.9488616
240	0x3f7eae2e	0.9948453
241	0x3f7abde2	0.9794599
242	0x3f782f99	0.9694763
243	0x3f7617c1	0.96129996
244	0x3f715b4f	0.9427995
245	0x3f73fd8c	0.95308757
246	0x3f8688f9	1.0510551
247	0x3f826149	1.0185939
248	0x3f7440f6	0.9541162
249	0x3f88a46a	1.0675175
250	0x3f7f97bb	0.998409
251	0x3f782d93	0.9694454
252	0x3f80effe	1.007324
253	0x3f8463d5	1.0342966
254	0x3f7ecd9c	0.99532485
255	0x3f77dd76	0.968223

net.3.bias f4 [512]
0	0xbbe8e790	-0.0071076825
1	0x3dc2d682	0.0951357
2	0xbc8b3777	-0.016994221
3	0x3d767ae1	0.06017578
4	0xbd1557ac	-0.036460564
5	0x3d41b9c6	0.047296308
6	0x3e0faf05	0.14031608
7	0x3d6f5646	0.058431886
8	0x3c37d8b8	0.011221103
9	0x3be1bcf2	0.006888979
10	0x3d516a4d	0.051126767
11	0x3d159f2b	0.036528748
12	0xbdae674d	-0.08515797
13	0xbd44195b	-0.047875743
14	0xbda17b07	-0.07884794
15	0x3d4eaf28	0.05046001
16	0xbd86611a	-0.065614894
17	0xbd73844c	-0.05945234
18	0xbd8b0b4a	-0.067892626
19	0x3d8262e8	0.06366521
20	0xbdbc3d8a	-0.09191425
21	0x3c160009	0.009155282
22	0x3bbf8ad0	0.005845405
23	0x3c954a87	0.018224014
24	0xbdba1369	-0.090857334
25	0x3ddf3cb2	0.109002486
26	0x3cee97c4	0.029125102
27	0x3d90748a	0.07053478
28	0x3c71db36	0.014761737
29	0xbd1fe22a	-0.039034046
30	0xba8a06be	-0.0010530574
31	0xbde6cce8	-0.112695515
32	0x3d83c12c	0.06433329
33	0xbd549de5	-0.051908392
34	0xbdc7563a	-0.09733243
35	0x3d40ae06	0.04704096
36	0x3e1dd913	0.15414838
37	0x3d01b993	0.031671118
38	0x3dd37941	0.10325862
39	0xbd64cead	-0.055861164
40	0xbd90b002	-0.07064821
41	0x3d2d88aa	0.04236666
42	0xbd3f16a8	-0.046652466
43	0xbd32490c	-0.043526694
44	0xbca562d6	-0.02018873
45	0x3ca5bc53	0.020231402
46	0x3d2c95d9	0.042135093
47	0xbd041faa	-0.03225676
48	0x3d7a5fc6	0.061126493
49	0xbdd9eb56	-0.1064059
50	0xb905f804	-0.00012776261
51	0x3dc591f9	0.09646983
52	0xbd605d75	-0.054776628
53	0x3e1f910b	0.15582673
54	0x3d78fae4	0.060786143
55	0xbd09511b	-0.033524614
56	0xbd487823	-0.048942696
57	0xbd6b18cc	-0.057396695
58	0xbbdceb8c	-0.0067419466
59	0x3e0b8bed	0.13627596
60	0x3d8af6c9	0.06785352
61	0x3d1b00b3	0.037842464
62	0x3d834f7b	0.06411644
63	0xbcd4d208	-0.025979057
64	0x3e0ee265	0.1395355
65	0x3c5c2bf8	0.013438217
66	0x3cd1681a	0.025562335
67	0x3d102b7a	0.035197712
68	0xbd4cabb1	-0.049968425
69	0x3d8f81d2	0.07007183
70	0x3af567f3	0.0018722996
71	0x3cfaecb6	0.03063045
72	0xbe3a744e	-0.18208429
73	0x3e0fbd27	0.14037
74	0xbcafde30	-0.021468252
75	0x3dcbdc89	0.09954173
76	0xbd7456d4	-0.05965312
77	0x3a225857	0.0006192973
78	0xbd9028fb	-0.070390664
79	0xbdcdcc4a	-0.10048731
80	0x3d4db10d	0.050217677
81	0x3bd15111	0.0063878377
82	0x3deb2f7b	0.114836656
83	0x3b377031	0.0027990455
84	0x3d14118b	0.036149543
85	0xbd2f4724	-0.042792454
86	0x3e3b4e0d	0.18291493
87	0x3bdb256e	0.0066878116
88	0x3d00e4d7	0.03146824
89	0xb933bec9	-0.00017141843
90	0xbcbbc0ba	-0.022919048
91	0x3d811436	0.06302683
92	0xbb8b8f4d	-0.004259026
93	0x3cf412a6	0.029794049
94	0xbd56b22e	-0.05241602
95	0x3d406d29	0.046979103
96	0xbdb79aa7	-0.089650445
97	0xbcc0a83d	-0.023517722
98	0x3c174a6c	0.009234052
99	0x3cc8a0a1	0.024490656
100	0xbd4ed5ca	-0.050496854
101	0x3bf5228a	0.007480924
102	0x3de1d1fc	0.110263795
103	0xbc23588c	-0.009969842
104	0xbcd6ba1f	-0.026211796
105	0xbce4ade3	-0.027914947
106	0x3c92c2d7	0.017915173
107	0xbcfca5b5	-0.030840734
108	0xbbf7e7df	-0.007565483
109	0x3ca7ea52	0.020497475
110	0xbc20c381	-0.009812237
111	0xbd1e8f86	-0.038711093
112	0xbd15aeb3	-0.03654356
113	0xbd869c53	-0.06572785
114	0x3ca4cc85	0.020117054
115	0xbc8aa26f	-0.016923157
116	0x3e10415a	0.1408743
117	0xbc79ca7a	-0.015246028
118	0xbd2fc32d	-0.042910744
119	0xbcce5f76	-0.025192004
120	0x3d890895	0.0669109
121	0x3b7eb59e	0.0038865576
122	0x3cd46d37	0.025930984
123	0xbce8f794	-0.028438367
124	0x3c0dcc3b	0.008654649
125	0x3e447a4d	0.19187279
126	0xbe183070	-0.14862227
127	0xbda25ee6	-0.07928257
128	0xbdce6886	-0.1007853
129	0xbcc3e56d	-0.02391311
130	0xbd30bd17	-0.04314908
131	0x3d042b28	0.03226772
132	0x3d36044c	0.04443769
133	0x3d186ead	0.037214924
134	0xbad3ad1f	-0.0016149617
135	0xbe182325	-0.14857157
136	0x3bd478a6	0.006484109
137	0x3d9227e5	0.071365155
138	0x3d1bac18	0.03800592
139	0x3bad67f1	0.005291932
140	0xbe139b4e	-0.14414713
141	0xbd9fec04	-0.07808688
142	0x3d7614e1	0.060078505
143	0xbc07deb8	-0.008292846
144	0x3e0a27d9	0.13491763
145	0x3a92d483	0.001120225
146	0x3d2fc20f	0.042909678
147	0xbd047be4	-0.032344714
148	0xbd2371d6	-0.039903484
149	0xbce46a89	-0.027882831
150	0x3c5986d9	0.013276779
151	0x3d7aa7ef	0.06119531
152	0xbc4d69b9	-0.012537413
153	0xbde6198b	-0.11235341
154	0x3dce6810	0.10078442
155	0x3d0da607	0.034582164
156	0xbdb70318	-0.08936137
157	0x3b18332e	0.0023223865
158	0xba9f32b4	-0.0012145848
159	0xbc837d8a	-0.016051073
160	0x3d88f68e	0.066876516
161	0xbde8e91d	-0.11372588
162	0xbbe4cd9f	-0.0069825198
163	0x3d3c48c2	0.045967825
164	0xbcd328aa	-0.025776226
165	0xbcd3d315	-0.025857488
166	0xbcdef178	-0.02721475
167	0xbc3abf74	-0.011398185
168	0x3d862c3f	0.06551408
169	0x3d8cec2a	0.06880982
170	0x3d2dc6ce	0.042425923
171	0x3cee29d9	0.029072689
172	0xbd194feb	-0.03742973
173	0x3d17a069	0.037018213
174	0xba220821	-0.0006181021
175	0x3c3e3a34	0.011610556
176	0x3dd97ed3	0.10619893
177	0xbcd2409f	-0.02566558
178	0x3e007c8d	0.12547512
179	0xbdd80995	-0.105487026
180	0x3d966fdf	0.073455565
181	0x3d53f8b7	0.051750865
182	0x3cea27ac	0.02858337
183	0x3d3dd98b	0.046350043
184	0x3dc6d29a	0.09708138
185	0x3de428fa	0.11140628
186	0x3e0029bd	0.12515922
187	0xbd95ea81	-0.07320119
188	0xbcb8de8a	-0.022567052
189	0xbd4b9dbd	-0.049710978
190	0xbd8d2ca8	-0.06893283
191	0xbc9d81e9	-0.019226985
192	0x3d040cbc	0.032238707
193	0xbd4d4000	-0.050109863
194	0x3da867ed	0.08222947
195	0xbd1a35fa	-0.037649132
196	0x3bb3e479	0.0054898825
197	0xbba98179	-0.005172905
198	0xbddc8dd7	-0.10769241
199	0xbc131bad	-0.008978766
200	0xbc656366	-0.014000749
201	0x3db24d9c	0.08706209
202	0x3dab749f	0.08371853
203	0x3d3ca665	0.046057124
204	0x3d8ae90c	0.067827314
205	0xbcfa1fd1	-0.03053275
206	0x3dd8485d	0.10560677
207	0x3d907021	0.07052637
208	0x3df60ffd	0.12014768
209	0xbdc3d824	-0.0956271
210	0xbcf7a1f1	-0.030228587
211	0x3db0026e	0.085942134
212	0xbcc7194d	-0.024304057
213	0xbcd10852	-0.025516663
214	0xbcd0f0fc	-0.025505535
215	0x3d4a4f19	0.04939184
216	0xbdfce137	-0.12347644
217	0xbd3237e5	-0.043510336
218	0x3da17bef	0.078849666
219	0xbd2b1c0f	-0.041774806
220	0xbddfa38d	-0.10919867
221	0x3d064fb1	0.032790843
222	0x3c49b420	0.012311012
223	0x3c3e315a	0.011608446
224	0xbd067f6f	-0.032836374
225	0x3bcbc5bd	0.0062186406
226	0x3d30f41b	0.043201547
227	0x3cc831fe	0.0244379
228	0x3be77600	0.0070636272
229	0xbd6176f1	-0.055045072
230	0x3c328901	0.010896922
231	0x3b747c2d	0.003730546
232	0x3cdf11e4	0.02723021
233	0x3bcc80e8	0.0062409528
234	0x3d0862b4	0.033297256
235	0xbcde894f	-0.027165083
236	0xbc8929b1	-0.016743513
237	0xbd20ca03	-0.039255153
238	0x3bf9d3d9	0.007624131
239	0x3e0b3823	0.13595633
240	0xbd9e8ec0	-0.07742071
241	0x3e00d479	0.12581052
242	0xbcef7812	-0.029232059
243	0x3dce999b	0.10087892
244	0xb917c985	-0.00014475554
245	0x3d3ffa73	0.046869706
246	0xbc84a654	-0.016192593
247	0x3d89ba5a	0.06724997
248	0x3d938283	0.072026275
249	0xbcd8727a	-0.026421774
250	0x3e24c956	0.16092429
251	0x3dbbb333	0.09165039
252	0xbd75399a	-0.059869386
253	0x3c3dd2f8	0.011585943
254	0x3d420ef1	0.04737753
255	0x3d6ca89b	0.057777982

net.3.running_mean f4 [512]
0	0x3e1fcb39	0.15604867
1	0x3e310c75	0.17289908
2	0x3dcb0908	0.09913832
3	0x3e9e3438	0.30899215
4	0x3e01eec0	0.12688732
5	0x3e94d1c9	0.29066303
6	0x3e23d1d2	0.15998009
7	0x3e7ba888	0.24576008
8	0x3e256e69	0.161554
9	0x3e107cff	0.14110182
10	0x3e2e57a5	0.17025621
11	0x3eb76e13	0.35826167
12	0x3e4ffd09	0.20311369
13	0x3e191104	0.14947897
14	0x3ea4de44	0.32200825
15	0x3e7cbe6e	0.24682018
16	0x3e66bd21	0.22533084
17	0x3e73ce9e	0.23809287
18	0x3e4f029d	0.2021584
19	0x3e14cf8d	0.145323
20	0x3e6bc0d9	0.23022784
21	0x3e46dc12	0.19419888
22	0x3e4952c8	0.19660485
23	0x3e51be3a	0.20482722
24	0x3e82738e	0.25478786
25	0x3e20c386	0.15699586
26	0x3e8ceeeb	0.2752603
27	0x3e85e30d	0.26149788
28	0x3e2bef3a	0.16790476
29	0x3ebd2b65	0.3694717
30	0x3e2cba4e	0.16867945
31	0x3e45a917	0.19302784
32	0x3e143e29	0.14476837
33	0x3e87ad19	0.2649925
34	0x3e25bca5	0.16185243
35	0x3e6750b1	0.22589375
36	0x3e7fc990	0.24979234
37	0x3e2cb00d	0.16864033
38	0x3e19c54d	0.1501667
39	0x3e7bbabf	0.24582957
40	0x3ecff083	0.40613183
41	0x3e91e994	0.28498518
42	0x3e6ac87e	0.22928044
43	0x3e1e91eb	0.15485351
44	0x3e6a94d7	0.2290834
45	0x3e200555	0.15627034
46	0x3dceaa9a	0.100911334
47	0x3e45c6e9	0.1931416
48	0x3e3d4d58	0.18486536
49	0x3ea00bd1	0.31259015
50	0x3e258d2f	0.16167139
51	0x3dfbd270	0.12295997
52	0x3e81893b	0.2530001
53	0x3dc44ea4	0.09585312
54	0x3e88f8d4	0.2675234
55	0x3d15950d	0.0365191
56	0x3ee4ff72	0.4472614
57	0x3e82e80f	0.25567672
58	0x3dccb7be	0.099959835
59	0x3e2d888f	0.16946624
60	0x3e31de5d	0.17369981
61	0x3eb921a7	0.36158487
62	0x3e3cd4e1	0.18440582
63	0x3e3d6c69	0.18498386
64	0x3e16069f	0.14650963
65	0x3e9e8779	0.30962732
66	0x3e37eda2	0.17961743
67	0x3e8fcaf2	0.28084522
68	0x3eb5de6d	0.3552126
69	0x3e3cd33a	0.18439952
70	0x3e809ecf	0.2512116
71	0x3de5093d	0.11183403
72	0x3e144a9a	0.14481583
73	0x3e5ae250	0.21375394
74	0x3e1c4b32	0.1526306
75	0x3e85bb25	0.26119342
76	0x3e81462c	0.2524885
77	0x3e1d6ab9	0.15372743
78	0x3ebdef74	0.3709675
79	0x3e3f61a5	0.18689592
80	0x3eb6cc18	0.35702586
81	0x3e9294d2	0.28629166
82	0x3e61e36e	0.22059414
83	0x3e403a3c	0.18772215
84	0x3df79e7b	0.120907746
85	0x3e80dac5	0.25166908
86	0x3edbdf9c	0.42944038
87	0x3eb131e8	0.34608388
88	0x3e8a9c3f	0.2707233
89	0x3e8d8f69	0.27648476
90	0x3e606c3f	0.21916293
91	0x3e43110f	0.19049476
92	0x3e37f20d	0.17963429
93	0x3e5106f0	0.20412803
94	0x3ec76cba	0.3895014
95	0x3ecbef94	0.3983122
96	0x3dca4a85	0.09877495
97	0x3eb1c82f	0.3472304
98	0x3ec8847b	0.39163575
99	0x3e0eba8a	0.13938347
100	0x3dc69cc1	0.09697867
101	0x3dd5984e	0.104294404
102	0x3e5899e2	0.21152452
103	0x3ea05346	0.31313533
104	0x3e8779a1	0.26459983
105	0x3e831e0d	0.25608864
106	0x3e4ff670	0.20308852
107	0x3ebdf816	0.37103337
108	0x3ea15dc6	0.31516856
109	0x3dbd58c4	0.09245446
110	0x3dd78521	0.10523439
111	0x3e994695	0.29936662
112	0x3e4f3a87	0.2023717
113	0x3e282e54	0.16423923
114	0x3e81e8ce	0.25372928
115	0x3de430bc	0.11142108
116	0x3eb02255	0.34401193
117	0x3e2e33e0	0.17011976
118	0x3e2d9299	0.16950454
119	0x3e96892a	0.29401523
120	0x3e7f37d1	0.24923636
121	0x3e9bb684	0.30412686
122	0x3e6ddeec	0.23229569
123	0x3e46362d	0.19356604
124	0x3e633707	0.2218896
125	0x3eb8a81b	0.36065754
126	0x3e241b74	0.16026098
127	0x3e4ccb92	0.19999531
128	0x3e9b1285	0.30287567
129	0x3e150429	0.14552368
130	0x3e9b0c36	0.30282754
131	0x3e013df3	0.12621288
132	0x3ed7073b	0.41997704
133	0x3e179525	0.14802988
134	0x3e9942f8	0.29933906
135	0x3e44aa21	0.19205524
136	0x3eac89d3	0.33698902
137	0x3e9bc308	0.30422235
138	0x3e9b7af1	0.30367234
139	0x3e9912fc	0.29897296
140	0x3e8fefb5	0.2811257
141	0x3e34498a	0.17606178
142	0x3dec2963	0.115313314
143	0x3e565b7d	0.20933338
144	0x3dba8a46	0.09108405
145	0x3e99a000	0.30004883
146	0x3e76d607	0.24105082
147	0x3dd7d106	0.10537915
148	0x3e46c466	0.19410858
149	0x3e7a22b5	0.24427302
150	0x3d2c9773	0.04213662
151	0x3ed2a5fb	0.41142258
152	0x3e5a9eb2	0.213496
153	0x3e071812	0.13192776
154	0x3e070ad6	0.13187727
155	0x3e2efb6a	0.17088094
156	0x3e9fd0a0	0.31213856
157	0x3e472478	0.19447505
158	0x3eab17f0	0.334167
159	0x3e417ba4	0.18894821
160	0x3e17e0ea	0.14831892
161	0x3e206701	0.15664293
162	0x3e255308	0.16144955
163	0x3e813106	0.25232714
164	0x3eb34ec9	0.35021046
165	0x3ddd45f6	0.108043596
166	0x3dafb00b	0.085784994
167	0x3e8d85d1	0.27641156
168	0x3e1bbf08	0.15209591
169	0x3ec3f575	0.38273206
170	0x3ec7390b	0.38910708
171	0x3e281af1	0.16416527
172	0x3e9a7679	0.30168512
173	0x3da00979	0.07814307
174	0x3e8dc038	0.27685714
175	0x3e426203	0.18982701
176	0x3e6ef464	0.23335415
177	0x3ea7630c	0.32692754
178	0x3e3b261a	0.18276253
179	0x3e70d18e	0.23517439
180	0x3e8f6bfc	0.28012073
181	0x3e19e19c	0.1502747
182	0x3ebd1a0c	0.36933935
183	0x3ddd24c5	0.10798029
184	0x3e3a7747	0.18209563
185	0x3df7bfc8	0.12097126
186	0x3e218df0	0.15776801
187	0x3e30e6e6	0.17275581
188	0x3df80089	0.12109477
189	0x3e2872fd	0.16450115
190	0x3e43ecaf	0.19133256
191	0x3e28a0e6	0.16467628
192	0x3e154cb5	0.14580043
193	0x3e764645	0.24050243
194	0x3df430f1	0.11923397
195	0x3ec40935	0.38288274
196	0x3ec0849a	0.37601167
197	0x3ed3ca32	0.413652
198	0x3e7b07bd	0.2451467
199	0x3e5b5e91	0.21422793
200	0x3e848678	0.25883842
201	0x3e19167e	0.14949986
202	0x3e973645	0.29533592
203	0x3e7bb2e6	0.24579963
204	0x3ea7cb6c	0.32772386
205	0x3e22d621	0.15901996
206	0x3db42a4f	0.08797132
207	0x3e8922c1	0.26784328
208	0x3ea4f80d	0.32220498
209	0x3e40d01e	0.1882939
210	0x3ebee25f	0.37282082
211	0x3ec136d1	0.37737134
212	0x3e877494	0.2645613
213	0x3e3c456f	0.18385862
214	0x3e3e154f	0.18562816
215	0x3e725f0e	0.23669073
216	0x3e1ba0a1	0.15197994
217	0x3e3eb419	0.1862339
218	0x3e1e23d2	0.15443352
219	0x3e058214	0.13037902
220	0x3df61173	0.12015047
221	0x3eb3fdf1	0.3515468
222	0x3e70e20c	0.2352373
223	0x3d6868b6	0.056740485
224	0x3e1e6194	0.1546691
225	0x3e586a1f	0.21134232
226	0x3ef6d1ab	0.4820684
227	0x3e84dfc7	0.2595198
228	0x3eb96506	0.36209887
229	0x3e13aa59	0.14420451
230	0x3ebe3510	0.37149858
231	0x3e959e2f	0.29222247
232	0x3e34c751	0.17654158
233	0x3e4df245	0.2011195
234	0x3e92d50c	0.28678167
235	0x3dcd7645	0.10032324
236	0x3da56729	0.08076317
237	0x3e9699b1	0.29414132
238	0x3d9e523a	0.07730527
239	0x3e810593	0.25199565
240	0x3e502199	0.20325316
241	0x3e48f704	0.19625479
242	0x3e02263f	0.12709902
243	0x3ea1d209	0.31605557
244	0x3e017474	0.1264208
245	0x3e9be2d0	0.30446482
246	0x3e0c36ec	0.13692826
247	0x3e93d1af	0.28870913
248	0x3e1812e3	0.14850955
249	0x3eabb23b	0.33534417
250	0x3e94b32b	0.29042944
251	0x3ebb38bd	0.36566725
252	0x3e891b09	0.2677844
253	0x3e8303c0	0.255888
254	0x3e5cb089	0.21551718
255	0x3e4fc003	0.2028809

net.3.running_var f4 [512]
0	0x3ddd81b5	0.10815755
1	0x3da4cb4b	0.080465876
2	0x3d6c49db	0.05768762
3	0x3e1e172f	0.15438531
4	0x3df42a36	0.119221136
5	0x3e441fa0	0.19152689
6	0x3d9c9e00	0.076473236
7	0x3dd79882	0.105271354
8	0x3dabbde7	0.083858304
9	0x3db5e31a	0.08881207
10	0x3ddec162	0.108767286
11	0x3e4c0e2f	0.19927286
12	0x3e080c04	0.13285834
13	0x3df09800	0.11747742
14	0x3e01e6e1	0.1268573
15	0x3e04d21d	0.12970777
16	0x3de56f96	0.11202924
17	0x3e1a5154	0.15070087
18	0x3de69676	0.11259167
19	0x3daa0a2f	0.083027236
20	0x3e27dbf3	0.16392498
21	0x3da8bb79	0.082388826
22	0x3df8f2a0	0.12155652
23	0x3e081723	0.13290076
24	0x3e18f8e8	0.149387
25	0x3d9e8741	0.077406414
26	0x3e1fe88c	0.15616053
27	0x3e38e7c1	0.18057157
28	0x3de9e3dc	0.11420414
29	0x3e3c71ca	0.18402782
30	0x3d8388e5	0.06422595
31	0x3e0a1c8d	0.13487454
32	0x3de0709b	0.10958978
33	0x3e3d1046	0.18463239
34	0x3dc4cda3	0.096095346
35	0x3d9b781b	0.07591268
36	0x3dee6281	0.11639882
37	0x3d85900e	0.06521617
38	0x3d9a1ea8	0.075253785
39	0x3e0270e5	0.12738378
40	0x3e80edab	0.25181326
41	0x3e09d1e8	0.13458979
42	0x3dea763c	0.11448333
43	0x3dbe8b60	0.093039274
44	0x3e125daf	0.1429355
45	0x3d9deb39	0.07710881
46	0x3d49d3b6	0.04927417
47	0x3d9088dd	0.070573546
48	0x3daeb1a8	0.08529979
49	0x3e4b2eb8	0.1984204
50	0x3dcfba38	0.1014294
51	0x3d9078f7	0.07054322
52	0x3e4ca56b	0.19984977
53	0x3d45abf0	0.048259676
54	0x3e01d757	0.12679802
55	0x3c1bf64a	0.009519169
56	0x3ea96be1	0.33090118
57	0x3e032f41	0.12810995
58	0x3d21e4af	0.03952473
59	0x3da7c1b6	0.08191244
60	0x3dd52c62	0.10408856
61	0x3e4653a3	0.19367842
62	0x3db868a3	0.09004333
63	0x3dbb19d3	0.09135785
64	0x3d6c0e9a	0.057631113
65	0x3e126bce	0.14298937
66	0x3db3ecfc	0.087854356
67	0x3e1aa039	0.15100183
68	0x3e50985b	0.20370619
69	0x3d8ea5d0	0.0696522
70	0x3e05fe70	0.13085341
71	0x3d345d18	0.044034094
72	0x3dcc92dd	0.099889494
73	0x3d757deb	0.059934538
74	0x3da22089	0.07916362
75	0x3e06b1b0	0.1315372
76	0x3dfbbc0b	0.12291726
77	0x3d844168	0.06457788
78	0x3e7a35af	0.24434541
79	0x3df12b40	0.117758274
80	0x3e551286	0.20807847
81	0x3e29c479	0.16578855
82	0x3dca69c0	0.098834515
83	0x3db72db5	0.08944265
84	0x3d522402	0.05130387
85	0x3dede686	0.116162345
86	0x3e523eac	0.2053172
87	0x3e5ec757	0.2175573
88	0x3dc4980b	0.095993124
89	0x3def32d0	0.116796136
90	0x3df3be53	0.11901536
91	0x3de5abf5	0.11214439
92	0x3e059745	0.13045986
93	0x3e018a79	0.1265048
94	0x3e569158	0.20953882
95	0x3e337530	0.17525172
96	0x3da4623e	0.08026551
97	0x3e39c09c	0.18139881
98	0x3e7f615d	0.24939485
99	0x3db1e7da	0.086868
100	0x3d4bab89	0.049724136
101	0x3d25c748	0.040473253
102	0x3e006579	0.12538709
103	0x3e4fb298	0.20282972
104	0x3e1c2408	0.1524812
105	0x3e08def3	0.13366298
106	0x3de6cfc5	0.11270098
107	0x3e5b7eb5	0.21435054
108	0x3e56f9d3	0.20993738
109	0x3d181874	0.037132695
110	0x3d4b0ffe	0.0495758
111	0x3e1d565e	0.15364978
112	0x3d4c3047	0.04985073
113	0x3d95cea1	0.07314802
114	0x3dded3e6	0.1088026
115	0x3d2f104c	0.04274015
116	0x3e172164	0.14758831
117	0x3d7e8875	0.062141854
118	0x3dc7b797	0.09751814
119	0x3e06bfa9	0.1315905
120	0x3de18690	0.11011994
121	0x3e171983	0.14755826
122	0x3ddf5557	0.10904949
123	0x3dd89123	0.10574558
124	0x3db5f9e6	0.08885555
125	0x3e3e5d02	0.18590167
126	0x3dcd4c2c	0.10024294
127	0x3e042493	0.12904577
128	0x3e170096	0.14746317
129	0x3d893c29	0.06700928
130	0x3e0b13e5	0.13581808
131	0x3d671886	0.05641987
132	0x3e85555c	0.26041687
133	0x3d9a9165	0.07547263
134	0x3de52ffd	0.11190794
135	0x3dce152d	0.10062633
136	0x3e0591a0	0.13043833
137	0x3e490c6a	0.19633642
138	0x3e34ad17	0.17644154
139	0x3e3827b8	0.17983902
140	0x3e0add99	0.13561095
141	0x3d95feb6	0.07323973
142	0x3d3ac78c	0.04560046
143	0x3dac4e4c	0.084133714
144	0x3cf65fbb	0.030074945
145	0x3e1fc8af	0.15603898
146	0x3dc62721	0.09675432
147	0x3d486ffa	0.048934914
148	0x3da5cf8e	0.080962285
149	0x3e1e845e	0.15480182
150	0x3c8d95d0	0.01728335
151	0x3e6294ba	0.22127047
152	0x3dedce23	0.11611583
153	0x3da5b79f	0.080916636
154	0x3d76a504	0.060215965
155	0x3db7aacc	0.08968124
156	0x3e1351d2	0.1438668
157	0x3db55381	0.08853818
158	0x3df95474	0.12174311
159	0x3e344f84	0.17608458
160	0x3d6ece44	0.05830218
161	0x3d98e9f0	0.07466495
162	0x3dd48075	0.10376064
163	0x3dc3b4fb	0.09556004
164	0x3e15d777	0.14632975
165	0x3d596293	0.053072523
166	0x3da055cb	0.07828864
167	0x3d9ed7dc	0.07756016
168	0x3d9cb13d	0.07650993
169	0x3e074aaf	0.13212083
170	0x3e4c8612	0.19973019
171	0x3dc7c399	0.09754104
172	0x3e10e37b	0.14149277
173	0x3d235586	0.039876483
174	0x3dd5faa8	0.104481995
175	0x3e0d6809	0.13809218
176	0x3dddb219	0.10824985
177	0x3e146648	0.14492142
178	0x3d9fe11a	0.078066066
179	0x3df828b2	0.12117137
180	0x3e06c01f	0.13159226
181	0x3d9c99a1	0.0764649
182	0x3e28512a	0.16437212
183	0x3d7a339f	0.061084386
184	0x3dd44a80	0.10365772
185	0x3d638843	0.05554987
186	0x3d868cb7	0.06569808
187	0x3dede89d	0.11616633
188	0x3d9cf0da	0.07663126
189	0x3db74823	0.08949306
190	0x3de671a8	0.11252147
191	0x3db30311	0.08740819
192	0x3d916dcf	0.071010225
193	0x3e032e1f	0.12810563
194	0x3d6fc6d7	0.058539238
195	0x3e4f94c5	0.20271595
196	0x3e4ca5fb	0.19985192
197	0x3e39f99e	0.18161628
198	0x3dea86ba	0.11451478
199	0x3e1686eb	0.14699905
200	0x3e141c7e	0.14463994
201	0x3d63e437	0.055637565
202	0x3e3757f2	0.17904642
203	0x3dc896e5	0.09794406
204	0x3e300d59	0.17192592
205	0x3da8c04b	0.08239802
206	0x3d2e196e	0.04250472
207	0x3e11e56b	0.14247672
208	0x3e093f2f	0.13403009
209	0x3e101656	0.1407102
210	0x3e7702f2	0.24122217
211	0x3e204f28	0.15655196
212	0x3e1cf950	0.1532948
213	0x3dc4f0b2	0.096162215
214	0x3ddbd840	0.10734606
215	0x3ddfc365	0.109259404
216	0x3dede3ce	0.11615716
217	0x3db09209	0.08621604
218	0x3d932943	0.071856044
219	0x3da7d616	0.081951305
220	0x3daab6a1	0.08335615
221	0x3e394bb4	0.18095285
222	0x3dd6b924	0.104845315
223	0x3e2374ed	0.15962572
224	0x3dcb1665	0.09916381
225	0x3dfb38fc	0.12266728
226	0x3e784bb6	0.24247631
227	0x3dd8175a	0.10551329
228	0x3e569e51	0.2095883
229	0x3dea4c1d	0.11440299
230	0x3e152045	0.14563091
231	0x3e4665c4	0.19374758
232	0x3daa9dca	0.08330877
233	0x3e1be83c	0.15225309
234	0x3dd10a71	0.1020707
235	0x3d416a00	0.04722023
236	0x3cb26080	0.02177453
237	0x3e4762e0	0.19471312
238	0x3d04fc15	0.032466967
239	0x3e09fb07	0.13474666
240	0x3dc61c8d	0.096734144
241	0x3d8f8fc9	0.07009847
242	0x3d642718	0.055701345
243	0x3e0819de	0.13291118
244	0x3d9b9527	0.07596808
245	0x3e17e2b2	0.14832571
246	0x3d99c774	0.07508746
247	0x3e190440	0.14943027
248	0x3da4f451	0.08054412
249	0x3e2603e2	0.16212419
250	0x3e0112ec	0.12604874
251	0x3e5a38cf	0.21310733
252	0x3e38511d	0.17999692
253	0x3e007ef3	0.12548427
254	0x3df560d7	0.11981361
255	0x3e087982	0.13327602

net.5.weight f4 [256, 512]
0	0xbd29c915	-0.041451532
1	0xbd8836b7	-0.06651061
2	0xbc41f033	-0.011837053
3	0x3d43162b	0.047628563
4	0x3d74c5a0	0.059758782
5	0x3d18f827	0.03734603
6	0xbd406bb5	-0.046977717
7	0x3c92cd67	0.01792021
8	0x3beaeb5f	0.0071691717
9	0xbca27814	-0.019832648
10	0xbd1b8392	-0.037967272
11	0x3c91075e	0.017703708
12	0x3c85fc1b	0.016355565
13	0xbc10bd3b	-0.008834179
14	0x3d7a204a	0.06106595
15	0x3a4b274e	0.00077496923
16	0x3daff30d	0.0859128
17	0xbc73a4ea	-0.014870862
18	0x3ca78d3e	0.020453092
19	0x3d297689	0.04137281
20	0x3d24f195	0.040269453
21	0xbb92da4a	-0.0044815885
22	0x3c231617	0.009953997
23	0xbd471bba	-0.048610426
24	0x3d98b2e4	0.07455996
25	0xbd3199d9	-0.04335961
26	0xbb4dc5e5	-0.0031398472
27	0xbd3717f2	-0.04470057
28	0xbd0c9377	-0.03432032
29	0x3d2cf61a	0.04222689
30	0x3d06b357	0.032885876
31	0x3da61470	0.08109367
32	0x3c96e8e3	0.018421596
33	0x3c0f1314	0.008732576
34	0x3d1f9805	0.038963336
35	0xbce10fef	-0.027473418
36	0xbd435e76	-0.047697507
37	0xbb8da194	-0.00432224
38	0xbcf76b1f	-0.030202447
39	0x3d0d65dd	0.034520973
40	0x3cf21353	0.02955023
41	0x3c40d96e	0.011770589
42	0x3ceb6b11	0.028737577
43	0xbca2a288	-0.019852892
44	0xbb50bf34	-0.0031852247
45	0xbcf2450b	-0.029573938
46	0xbb909a1f	-0.004412904
47	0x3ccd3290	0.025048524
48	0xbd38df85	-0.04513504
49	0x3cfbea1a	0.030751277
50	0x3d0515c8	0.032491475
51	0xbd67214a	-0.05642823
52	0x3c092a58	0.008371912
53	0xbd79cc28	-0.060985714
54	0xbd16983d	-0.03676628
55	0x3c7afbcd	0.015318823
56	0x39efa8c0	0.0004571136
57	0xbc171631	-0.009221599
58	0xbc5f7210	-0.013638034
59	0xbb891c94	-0.004184315
60	0xbc993337	-0.018701179
61	0x3b512e7b	0.0031918574
62	0x3c9843f3	0.018587088
63	0x3cac90be	0.021065112
64	0xbd68839a	-0.05676613
65	0x3cde03ca	0.027101416
66	0x3d49fcb9	0.04931328
67	0x3cadb5bb	0.02120482
68	0x3d07ad4b	0.03312425
69	0xbd0c01dc	-0.03418146
70	0xbcea14c2	-0.028574351
71	0x3d756154	0.059907272
72	0xbd9794d6	-0.07401435
73	0x3d6b7d1d	0.057492364
74	0xbd21c8de	-0.039498203
75	0x3c0900df	0.008362024
76	0xbbd03f81	-0.0063552265
77	0x3d228576	0.03967806
78	0xbc71cdab	-0.014758508
79	0x3cece687	0.028918518
80	0x3d2fa0f8	0.04287812
81	0x3d8ab7c1	0.067733295
82	0xbd0226f7	-0.03177544
83	0xbc681920	-0.0141661465
84	0x3c585c15	0.013205548
85	0x3d65282d	0.055946518
86	0xbd4ba91a	-0.049721815
87	0xbcf26485	-0.029588947
88	0x3c64c8d4	0.013963897
89	0x3d767aa4	0.060175553
90	0xbd60ec5d	-0.054912914
91	0x3cddb721	0.027064862
92	0x3b73a169	0.0037175065
93	0xbccf98e4	-0.025341459
94	0x3ca801f0	0.020508736
95	0xbd40fbf0	-0.047115266
96	0xbd138275	-0.036013085
97	0xbc90ac79	-0.017660366
98	0x3c1d3ee9	0.0095975185
99	0xbcdd3def	-0.027007071
100	0x3c46cc22	0.01213363
101	0xbb940d61	-0.0045181965
102	0xbdc10ef0	-0.09426677
103	0xbd4ac07a	-0.049499966
104	0xbcea7d07	-0.02862407
105	0x3b61df3d	0.0034465336
106	0x3d3b3b38	0.045710772
107	0x3d5e1dd6	0.054227673
108	0x3c08dc35	0.008353283
109	0x3cc180a0	0.023620903
110	0xbd3d4850	-0.04621154
111	0x3d9e19f3	0.07719793
112	0x3d93bc06	0.07213597
113	0x3cb8faed	0.022580588
114	0xbbdd7427	-0.006758231
115	0xbcf9ac13	-0.03047756
116	0xbc7d1af0	-0.015448317
117	0xbc4c6c52	-0.012476997
118	0x3d092eab	0.03349177
119	0x3c5425a9	0.012948432
120	0xbd7310a2	-0.059342034
121	0x3d01b91d	0.03167068
122	0xbc8ba89b	-0.01704817
123	0x3c896901	0.016773703
124	0xbd5c65b1	-0.053807918
125	0xbd35395c	-0.044244155
126	0x3c66f94c	0.014097523
127	0xbd8529d4	-0.06502119
128	0x3d062dbb	0.032758456
129	0x3d5cbd6f	0.053891595
130	0x3caf3e68	0.021392062
131	0x39ef7838	0.00045675202
132	0xbbee57ea	-0.0072736638
133	0xbd8ab0eb	-0.06772026
134	0x3d8d6fa3	0.06906059
135	0x3ccac997	0.024754329
136	0x3c30999a	0.010778809
137	0xbcffbda8	-0.031218365
138	0x3cafd0e5	0.021461913
139	0xbaa78a1c	-0.0012782249
140	0xbcd69447	-0.026193751
141	0xbc0ffaf9	-0.008787864
142	0x3d173538	0.036915988
143	0xbc0f235a	-0.008736456
144	0x3d13f407	0.036121394
145	0xbc55ca82	-0.01304877
146	0x3c2b098a	0.010439286
147	0x3c0a13a9	0.008427539
148	0xbd36eff6	-0.04466244
149	0xbcf327b3	-0.029682016
150	0xbd67716f	-0.056504663
151	0x3b0130d2	0.0019712937
152	0xbc13385f	-0.008985608
153	0x3dc143f5	0.0943679
154	0x3b3949e4	0.0028272802
155	0xbd93144d	-0.071816064
156	0x3d962c1f	0.07332634
157	0xbd9d770e	-0.076887235
158	0x3cbaa049	0.022781508
159	0x3d68c8e3	0.056832206
160	0x3ce59158	0.028023407
161	0x3d923efd	0.0714092
162	0x3d581c83	0.052761566
163	0x3d51abab	0.051189106
164	0xbc0cf34b	-0.008602927
165	0x3d7644fe	0.06012439
166	0xbcfc0fcc	-0.030769251
167	0x3c84af62	0.01619691
168	0x3c49a2bc	0.012306865
169	0x3c9bd5cd	0.019022847
170	0x3c56d3bb	0.013112004
171	0xbb9c2889	-0.0047655744
172	0x3a196bf8	0.00058525754
173	0x3d5649e0	0.052316546
174	0xbb871b6a	-0.004123141
175	0x3d703f57	0.058654156
176	0xbc351f26	-0.01105479
177	0x3b806633	0.003918433
178	0x3c75e911	0.015009181
179	0x3dd3f456	0.10349338
180	0xbd235b9c	-0.039882287
181	0x3d7a80cc	0.061157987
182	0xbc0b4dfb	-0.008502479
183	0xbb6c5509	-0.0036061427
184	0xbc6b6215	-0.014366646
185	0xbd13701b	-0.035995584
186	0xbd20fc5c	-0.03930317
187	0xbc7c9b5d	-0.015417901
188	0x3bc614e8	0.0060449727
189	0x3cbe209c	0.023208909
190	0x3d939dca	0.0720783
191	0x3d3aae60	0.045576453
192	0x3cb62b9b	0.02223759
193	0x3d7a08d9	0.061043594
194	0xbcfa91c0	-0.030587077
195	0x3b42ccd8	0.0029724147
196	0x3cf45da5	0.02982981
197	0x3cd3f9e7	0.025875999
198	0x3c9027a9	0.017597036
199	0xbcc66e87	-0.024222625
200	0x3d4c0590	0.049809992
201	0xbdb0af96	-0.0862724
202	0x3d75add4	0.05998023
203	0xbd296949	-0.041360173
204	0x3ca396ec	0.019969426
205	0xbd051e9e	-0.032499902
206	0xbc3d84d0	-0.0115673095
207	0xbd978263	-0.07397916
208	0xbc71ce6c	-0.0147586875
209	0xbcfb00ac	-0.030639969
210	0xbd11a562	-0.035558112
211	0xbd2947f7	-0.041328397
212	0x3c911bf1	0.017713519
213	0x3d696a1b	0.056985956
214	0xbc4f1162	-0.012638422
215	0x3ccfc3e8	0.02536197
216	0x3d64c8ad	0.05585544
217	0x3d316715	0.043311197
218	0x3d0150c7	0.031571176
219	0xbd4f7c59	-0.050655697
220	0xbcd129fb	-0.025532713
221	0x3bb224ee	0.0054365313
222	0x3d2cf7f9	0.042228673
223	0x3c440ad8	0.011965476
224	0x3c998d2b	0.018744072
225	0xbcb44f40	-0.022010446
226	0x3d0faea5	0.035078663
227	0x3d1473ca	0.036243238
228	0xbc5c55bf	-0.013448178
229	0x3cb4cd3b	0.022070518
230	0x39fbca71	0.0004802528
231	0xbd2b9db1	-0.041898433
232	0xbcb2e8c3	-0.021839505
233	0xbd1a029d	-0.03760015
234	0xbc5e31fe	-0.013561724
235	0xbd2692a3	-0.040667187
236	0x3cfae3b3	0.030626154
237	0x3d0ebfe4	0.03485097
238	0xbcc38fe0	-0.023872316
239	0xbcd638ba	-0.026150096
240	0x3d174531	0.03693122
241	0x3c23a969	0.009989121
242	0xbc840088	-0.016113535
243	0x3bdafb9f	0.0066828276
244	0x3c9f5d58	0.01945369
245	0x3c15b3ba	0.009137088
246	0x3d3d17fa	0.046165444
247	0xbc313ba3	-0.010817441
248	0x3cfcff49	0.030883448
249	0x3c807014	0.015678443
250	0x3b972ed7	0.004613738
251	0xbcd541f9	-0.026032435
252	0xbc91a4f6	-0.017778855
253	0x3c881dda	0.016615797
254	0xbd8bd9b3	-0.06828632
255	0x3bcf9483	0.0063348426
