Adult_CNN_best (1).pt (torch, 60655 bytes, 7 tensors)

feat.1.weight f4 [16, 1, 3]
000000 a7 d1 8f bc f1 cd 13 3e a8 1c ed 3e b9 22 ab be
       -0.017556025 0.14434029 0.46310925 -0.3342493
000010 5c 74 08 bf f6 26 0a bf 44 28 07 3e 1c e0 b4 3e
       -0.5330255 -0.539657 0.13198954 0.35327232
000020 bc 80 ac 3e c4 e7 dd be 4f 57 f4 3e 7b fd 13 3f
       0.33691967 -0.43340886 0.4772286 0.57808656
000030 67 38 85 be 11 30 1d 3f 62 ee 01 3f 95 b3 50 bd
       -0.26019594 0.6140147 0.5075437 -0.050952513
000040 a1 c3 96 3e 5d bb 88 be 9e 09 02 bc a0 dc be bd
       0.29446128 -0.26705447 -0.007936863 -0.09319425
000050 a0 2e 14 3f a1 20 f8 be aa e8 a2 3d 8c da f6 3d
       0.57883644 -0.48462394 0.079545334 0.12053403
000060 4f 51 cb be d3 71 18 bf 8e 34 53 bd 8d 19 cb 3c
       -0.3971047 -0.5954868 -0.051563792 0.024792457
000070 3b ae eb 3e 3f 59 f7 3e f5 7c 17 bf e0 2b a0 be
       0.46031365 0.48310277 -0.59175044 -0.31283474
000080 39 d2 26 be c1 7a 2c 3f 6c 21 cf be 10 3a 25 3f
       -0.16291131 0.6737481 -0.40455186 0.6454172
000090 a2 88 29 bf 06 15 2b 3e 2b 64 e1 be b9 3d a7 3e
       -0.6622411 0.16707239 -0.44021735 0.32664278
0000a0 29 fa 2b 3f 23 12 48 be 9d 14 13 bf 55 b9 3e 3c
       0.6717859 -0.19538169 -0.5745333 0.011640866
0000b0 b4 5b 18 3f b9 d6 32 3e 00 31 87 3c 9e 45 f0 3e
       0.5951493 0.17464723 0.016502857 0.46928114

feat.1.bias f4 [16]
000000 96 79 6c bb d7 95 9e 3e aa a9 c4 3e 00 35 9b 3b
       -0.0036083213 0.30973694 0.38410693 0.0047365427
000010 d5 e6 48 3e 6d 78 2b 3e c2 6c 07 bf 8e f6 bf 3e
       0.19619305 0.16745158 -0.52900326 0.37492794
000020 78 93 f0 be 16 38 03 bf 3f 75 1e 3c de a7 14 bf
       -0.4698751 -0.51257455 0.009671508 -0.58068645
000030 a2 99 b8 3d 38 5d 86 be e3 69 b8 3e 78 ca 96 be
       0.09013678 -0.26242995 0.36018285 -0.29451346

feat.4.weight f4 [32, 16, 3]
000000 b8 9b b7 bc 76 df 92 bb 80 a9 98 bd e7 81 85 3d
       -0.02241312 -0.004482205 -0.074542046 0.065189175
000010 fc 46 ad bd 3c 78 72 be 9c a0 07 3e a6 fa bf bd
       -0.08460805 -0.23678678 0.13244861 -0.09373979
000020 54 6e 30 be 98 64 5c 3d 2a 9f 3b be d4 8c fa 3d
       -0.17229587 0.05380687 -0.18322435 0.12233892
000030 46 4c 33 bd 0d 1f 39 3d b9 83 1d 3d 92 2f 74 3c
       -0.043773912 0.045195628 0.0384557 0.01490392
000040 e2 23 22 3e e4 3e e8 3d 90 60 e9 3d 19 d0 66 3d
       0.15834 0.113401204 0.11395371 0.0563508
000050 b0 1a 15 be 55 a3 3d 3e b2 08 09 3d ef 6b 98 bd
       -0.14560962 0.18519337 0.033455558 -0.07442462
000060 ee 60 98 3d 69 7b 59 be b5 e5 d1 3d 17 72 9d 3e
       0.07440363 -0.21238483 0.10248891 0.30751106
000070 0e 1f 0b 3d f1 d1 14 be f0 de 45 bc 6f 8e 51 bc
       0.033965163 -0.14533211 -0.012077078 -0.0127903065
000080 bb 95 84 bd 0d 11 95 be 94 4d 5d 3e da af 7a 3d
       -0.06473871 -0.2911457 0.21611625 0.06120286
000090 df dd 2a 3d 26 a7 c1 bc 81 23 84 3d 7e a5 f8 bc
       0.0417155 -0.023639273 0.06452084 -0.03035235
0000a0 45 7d 5e 3e 70 77 5f 3b f7 1b 26 bd b9 23 b6 bd
       0.21727474 0.003409829 -0.040554013 -0.08893532
0000b0 09 85 b5 3d 15 63 97 3d 88 40 85 bd ca 37 96 bd
       0.08863265 0.07391945 -0.06506449 -0.0733486
0000c0 65 dd df 3d fd ac 55 3d 87 7e 80 3d a4 26 e7 3c
       0.109308995 0.052166928 0.06274133 0.028216667
0000d0 56 7e dc 3c 5b 04 bb bc 4b 1e 2c 3d 93 57 83 bd
       0.02691571 -0.022829225 0.042021077 -0.06413188
0000e0 e5 34 c9 bc 07 3e 8e 3d fc 3c 09 3d 76 5e 53 be
       -0.024561355 0.069454245 0.033505425 -0.20641503
0000f0 8f 3c be bd 16 72 55 3c 4d 14 34 be 1e ac 1d 3e
       -0.092888944 0.0130276885 -0.17585869 0.15397689
000100 e4 7c 95 bd 79 cb 01 be ff e0 5e be 10 18 9b bd
       -0.072992116 -0.12675275 -0.21765517 -0.07572949
000110 61 b4 21 3c 94 12 f1 bd 48 30 8e bd 9e 36 d2 bc
       0.009869666 -0.117711216 -0.06942803 -0.02566081
000120 a6 3c a2 bd 8f 53 2d 3e 13 37 33 be 29 92 26 bd
       -0.07921724 0.16926406 -0.17501478 -0.040666733
000130 09 85 7a 3d 98 5c f5 bd ef 6a 58 3d fb 79 4d bd
       0.06116203 -0.119805515 0.052836355 -0.050165158
000140 e7 02 4b 3c a0 25 75 bd 1f 30 42 3e 02 f8 6e be
       0.012390829 -0.059850335 0.18963669 -0.23336795
000150 57 bc 67 3d c8 dd c0 3d b5 17 b9 3d 8f 06 c1 3d
       0.0565761 0.094173014 0.09037725 0.09425079
000160 cf 08 2e 3d 52 f2 e4 bd 8c c3 4e 3c b7 f5 a3 3d
       0.04248887 -0.111790314 0.012619864 0.08005851
000170 56 74 e9 3c 74 35 1b be aa 3c 40 bd b4 62 14 bd
       0.028497856 -0.1515711 -0.046932854 -0.036226943
000180 62 bc b5 3c 1f bc e5 bd 92 fc a6 3c a7 e2 cf 3d
       0.022184554 -0.11217522 0.020384107 0.101506524
000190 ca f1 fa 3c 6c 64 9f bd 19 23 43 3d b7 e0 93 3d
       0.030632872 -0.07782826 0.047640894 0.07220595
0001a0 d6 a8 c2 3d 40 b3 fc 3d 39 58 6e 3c 2b de 2f bd
       0.09504859 0.12338877 0.014547401 -0.042936485
0001b0 f9 09 01 3e 86 bc ab 3c b0 2b d9 bd 8a 97 5e bd
       0.1260146 0.020963918 -0.10604036 -0.054343738
0001c0 7d 03 db 3d d4 e9 5e 3d a2 b2 84 3d d9 37 73 be
       0.10694025 0.054422215 0.06479384 -0.23751773
0001d0 1c f4 ac ba 9b 7f da 3d c9 aa eb 3d 32 e8 2f bd
       -0.0013195309 0.1066887 0.11507184 -0.042946048
0001e0 8d ff 4a 3d 5c be 40 be e8 3f 88 bc 64 05 65 bd
       0.04956012 -0.18822616 -0.016632035 -0.055913344
0001f0 44 b4 38 3b dc a9 e5 bd 0c 68 84 3d ac 88 41 bd
       0.0028183619 -0.11214039 0.06465158 -0.04724948
000200 8a f1 bc 3d b2 ef 48 bd 3c f4 0d be 6d 82 0b 3c
       0.092257574 -0.049056716 -0.138627 0.008514983
000210 35 db 4f 3e f1 e7 34 3d 87 5b 1d be e5 01 00 3d
       0.20298465 0.04416651 -0.15366946 0.031251807
000220 74 c8 be bc b5 92 a9 3d e2 b4 13 3e 29 c0 2c be
       -0.023288943 0.08279935 0.1442447 -0.16870178
000230 e3 cb 19 3d 91 24 db bc ea c5 16 bd 30 1a ce 3d
       0.037547957 -0.026750835 -0.03680984 0.100635886
000240 47 aa ee b9 74 32 e9 3d e1 b0 e0 3c 94 ec 62 bd
       -0.00045521764 0.11386576 0.027428092 -0.0554014
000250 45 5c d9 3d 44 67 8d bb e9 41 16 be 5c 9b ba 3d
       0.10613302 -0.0043152887 -0.1467358 0.09111664
000260 20 7a bb bd d7 47 fb bd ca ee 25 3c 61 f7 74 3d
       -0.09154153 -0.12269562 0.0101277325 0.05980623
000270 df 72 4f bd 68 4e 41 bb 94 8b b7 bd ac 7c 96 bd
       -0.05064666 -0.0029496197 -0.08962169 -0.07347998
000280 b2 35 34 3e a6 f1 80 bd 78 2f 2a be 9f fd c0 bc
       0.17598608 -0.06296091 -0.1661967 -0.023558436
000290 4e 4e a8 3d 8b 3f ef 3c bb c9 23 3d b7 59 56 bd
       0.082180604 0.029205104 0.039987307 -0.052331652
0002a0 71 7e be 3d 68 6f 63 3d b8 91 2b be 25 bd 36 3c
       0.093014605 0.055526167 -0.16754806 0.011153494
0002b0 f4 48 1e be 45 10 dc bd 59 53 b5 3d f3 6d 2a 3e
       -0.15457517 -0.10745291 0.08853788 0.16643505
0002c0 e3 4b 3e 3d b9 1b 47 be c9 5d 71 3d 1e f7 7c 3d
       0.04645909 -0.19444169 0.05892733 0.061759107
0002d0 8a 36 a9 bd 27 c9 c1 3d f3 07 ab 3c 24 40 22 3b
       -0.082623556 0.09462195 0.020877814 0.002475747
0002e0 37 5c 29 3d c6 d0 99 bd a4 2b ff 3d ca 75 87 3d
       0.04134771 -0.075105235 0.12459496 0.06614263
0002f0 07 75 c1 3b 50 8f 3b bd fb b6 16 be ba 71 e0 bd
       0.0059038433 -0.04579097 -0.14718239 -0.109591916
000300 cc 69 fd bc 0b 4d cb bd 6f 4a 27 be 9e 3b f6 3d
       -0.030934237 -0.09926804 -0.16336988 0.1202309
000310 fc b2 7a bd 44 ca d1 3d 35 1d 90 3d 8a 21 02 be
       -0.06120585 0.10243657 0.07036821 -0.12708107
000320 78 c3 4b 3c 21 9a 11 be f3 95 cc 3d c6 7d 32 bd
       0.01243674 -0.14218952 0.09989538 -0.04357698
000330 bc 01 a3 3d ca e1 39 3d 7b 6d a6 bc 1b e7 b2 3d
       0.07959315 0.045381345 -0.020315876 0.08735486
000340 d4 e7 d9 3c a1 b3 2a bd 24 f4 aa 3d 73 06 c3 bd
       0.026599802 -0.041675214 0.083473474 -0.095227145
000350 ac 67 25 bd dc 4d 88 bb 2c 1f 17 3e 7e b8 60 3d
       -0.040382072 -0.004159672 0.14757985 0.054863445
000360 f1 79 2e 3d 76 bc e7 3d ee f1 8d bd 94 f4 fe bc
       0.04259676 0.11315243 -0.0693091 -0.031122483
000370 44 d7 80 bc 76 b6 0d be 18 51 8c bd af 2d d7 bd
       -0.015727647 -0.13839135 -0.06851405 -0.1050676
000380 fa aa ae bd 75 00 c8 bd 85 ef 80 be 50 b3 a8 3d
       -0.08528705 -0.09765712 -0.2518274 0.08237326
000390 c3 11 26 be c3 38 7e 3c 4a 8a 02 3e ca 09 56 bd
       -0.16217713 0.015516463 0.12748066 -0.05225543
0003a0 58 2e 21 3e c9 d4 cd bd 5e 2d 36 bd 50 d5 f0 3d
       0.15740335 -0.10050351 -0.04447686 0.11759436
0003b0 2e 18 3a bc 17 10 ce bd 18 7c 45 be 87 92 ea bc
       -0.011358304 -0.10061663 -0.1928562 -0.028634323
0003c0 3b 51 aa 3d 78 91 90 3d 3c 9c 07 be 6f 88 2d bd
       0.08316275 0.07058996 -0.13243192 -0.04236644
0003d0 6a d2 5d be 03 2e 2c be a3 9f cc 3d 87 dc 42 3d
       -0.21662298 -0.16814427 0.09991386 0.047573593
0003e0 ec bd 51 3d 10 96 4d 3e c6 35 80 3d 58 83 09 be
       0.051206514 0.20076776 0.062602565 -0.1342901
0003f0 1b 2a 22 3c a1 cb 02 3d 48 c7 0b 3d 15 74 62 bd
       0.009897734 0.031932477 0.034125596 -0.055286486

feat.4.bias f4 [32]
000000 d3 f0 12 3d 85 c2 10 3e 90 16 05 3e 82 47 5f bd
       0.0358742 0.14136703 0.12996888 -0.054511555
000010 04 50 cb bd 37 38 68 3d 58 4c 0d 3e 6d 24 0a ba
       -0.09927371 0.056694236 0.13798654 -0.000526971
000020 39 26 40 bd d2 44 24 3e 91 26 13 bd 43 67 f0 bc
       -0.046911452 0.16041878 -0.03592545 -0.029346114
000030 92 e0 41 3c 6b ea 08 be 0b 18 ad 3d 2f 4d dd bd
       0.011833327 -0.13370673 0.084518515 -0.10805737
000040 e7 2c a0 bd 71 a6 aa bd b7 a4 8f 3d 06 fb 04 be
       -0.078210644 -0.083325274 0.07013839 -0.12986383
000050 b4 69 1e be 73 b4 7e 3d 04 fe 24 bd ff ce ea bd
       -0.1547001 0.06218381 -0.04028131 -0.114652626
000060 59 4a b9 bc 46 2a c4 3d f4 47 1a be 2e 04 fe 3d
       -0.02261846 0.095783755 -0.1506651 0.12403141
000070 1b f8 a5 3d b2 74 22 3e 14 a8 0b be c0 69 61 3b
       0.08103963 0.15864828 -0.13638335 0.0034395307

head.0.weight f4 [128, 96]
000000 e7 fb 89 3d f6 24 ee 3c dd fd 51 3e 45 e4 9b bd
       0.067375 0.029070359 0.20506997 -0.07611898
000010 d7 1c b7 bd 89 53 0b 3d 9d 96 ea 3c 68 66 5a 3d
       -0.08941048 0.034015212 0.028636271 0.05332032
000020 e8 16 ef bc 7b b3 20 3c 65 55 3f be 54 42 35 bc
       -0.029185727 0.0098084165 -0.18684919 -0.011063177
000030 f8 2f 76 bd 86 79 c6 bd fe 91 c6 3d d4 4d 9c 3c
       -0.06010434 -0.096911475 0.096958145 0.01908008
000040 f5 03 9e bd c4 22 72 3e 72 73 0b 3e 34 61 e8 bd
       -0.077155985 0.23646075 0.13618258 -0.11346665
000050 ab 1c 85 3d 75 1f 9c bc b7 fd c7 bd e5 0c 97 bd
       0.064996086 -0.019057969 -0.09765189 -0.07375506
000060 71 cc 6b bd 10 63 8c 3d 63 9d 22 3e 44 0d 25 3e
       -0.057568017 0.06854832 0.15880351 0.16118342
000070 6d 95 8e 3d 51 df 2d 3e 41 c2 ee bd a7 78 87 3d
       0.069620945 0.1697972 -0.11658145 0.066148095
000080 57 37 ca bb 0c 14 5f 3d 4b 56 b8 bd 59 67 a3 bb
       -0.006171148 0.054462478 -0.09000834 -0.0049866852
000090 bf 5b e0 bc 0f 17 db bc 00 0c 21 3d bb 00 cb bd
       -0.027387498 -0.026744394 0.039318085 -0.09912249
0000a0 89 b9 95 3d 8c 54 6c 3d 3b 76 0f bd 98 9b c1 bd
       0.07310779 0.057697818 -0.035024863 -0.09453505
0000b0 76 42 08 3e a6 50 8a bd 0d 79 00 bd 74 bc 94 3d
       0.13306603 -0.06753664 -0.031365443 0.07262507
0000c0 d0 9d 2a bd a5 e9 b8 bd 8e 6e 3a bc f2 2e 1c bc
       -0.041654408 -0.09028939 -0.011378897 -0.009532677
0000d0 c7 f1 15 bd 29 e8 fa bc eb 49 60 be 04 5e 8c bd
       -0.03660753 -0.03062828 -0.21903197 -0.068538696
0000e0 a0 15 32 bd 99 0b 61 3d 1c e1 9c bd eb de fe 3d
       -0.043477654 0.0549427 -0.07660124 0.12444862
0000f0 b9 7f 75 3d 14 63 85 bd 94 23 12 3e 64 eb 3b bd
       0.05993626 -0.06513038 0.14271384 -0.045878783
000100 c5 93 b8 bb f0 45 5e 3d 2f f1 33 be 8a 9c 27 3d
       -0.00563285 0.054265916 -0.17572473 0.04092077
000110 28 b0 11 be f4 39 99 3d b0 da 20 be 2a 49 86 3d
       -0.14227355 0.07481757 -0.15708423 0.06556924
000120 7d 1b 1b 3c 7c 3d 44 be 09 2a 09 3e 8b ac 09 be
       0.009467003 -0.1916408 0.13394941 -0.13444726
000130 e6 0c e0 bd 61 b3 a8 3d 1d ba c1 bb 8e 60 22 bd
       -0.1093996 0.08237339 -0.005912079 -0.039642863
000140 dd 93 d0 3d 70 97 d0 3c be bf d5 3d 78 a3 78 bd
       0.10184453 0.025462836 0.104369625 -0.06070277
000150 c0 59 8f bc 14 a1 9e 3d 2c 5f cf bd 3f eb 1a bd
       -0.01749885 0.07745567 -0.101255745 -0.037822004
000160 18 66 0b 3c a4 8d 9c 3d 5b 3f 36 3d 01 43 2b 3d
       0.008508228 0.07644203 0.044494014 0.041811947
000170 b1 ab 2d 3e b2 20 3c be d2 3b e8 3d 8c eb 69 ba
       0.16960026 -0.18371847 0.11339535 -0.0008923344
000180 2b aa 08 bd 8e 1d dc bd 66 01 87 3e 57 5b 71 3d
       -0.03336541 -0.107478246 0.26368254 0.058925
000190 3c ee 2c bd d1 ef c1 3d 2c b1 b3 3c 6a a0 ee bc
       -0.042219386 0.094695695 0.021935068 -0.029129226
0001a0 07 c1 a9 3d c5 ae 52 bd ce 25 89 bd 08 5a 90 3c
       0.0828877 -0.051436204 -0.06696664 0.017621055
0001b0 f4 e1 db bd a7 d3 91 3b a0 08 3b 3b f9 80 18 3c
       -0.107364565 0.0044502798 0.0028539076 0.009308093
0001c0 2d 0c 3e bd 14 e4 35 3e b6 9a f8 bc 78 57 ef bd
       -0.04639833 0.17762786 -0.03034721 -0.11686605
0001d0 74 0c 6f 3e b8 e2 3c 3e d7 cb 22 be e7 0d bc 3d
       0.23344594 0.18445861 -0.15898071 0.09182339
0001e0 c4 3a 81 bd 72 2a ac 3d 94 1e 0e 3e 77 7b ea 3d
       -0.06310037 0.08406533 0.13878852 0.1144933
0001f0 e8 55 9c 3d 38 23 e1 3d 44 9e 5a bd f6 92 cb 3c
       0.07633573 0.109930456 -0.05337359 0.02485035
000200 7c d5 de 3d 8c c4 05 bd 85 8e dc bc 4c 64 87 bd
       0.10880563 -0.032658145 -0.026923427 -0.06610927
000210 b8 88 c4 bd e6 58 35 bd c7 e6 24 3e 42 11 41 be
       -0.095963895 -0.044274233 0.1610366 -0.1885424
000220 f1 7d 4f 3d 6c 7d e2 bc a7 15 1a 3c 2b 39 e7 3d
       0.050657216 -0.027647696 0.009404576 0.11290201
000230 ea db 5c 3d 0f 63 1f 3d ab 51 ae bd 03 72 04 bc
       0.053920664 0.03891283 -0.08511671 -0.008083823
000240 84 2d ff 3d 4c 8d 94 bb ad e0 24 3e e7 ca b8 bd
       0.12459853 -0.0045334455 0.16101332 -0.090230756
000250 a4 2b 64 3c 3c 5a 11 be 39 ed 8d 3a 83 19 20 3d
       0.01392642 -0.14194578 0.0010828144 0.03908683
000260 dc fd 06 bd ed b2 ba bd 73 b8 17 bd 09 13 d7 3d
       -0.032956943 -0.09116159 -0.03704114 0.105016775
000270 cf ba 29 3e f4 66 75 bd 50 73 8e 3d 1d e7 43 bd
       0.16575168 -0.059912637 0.06955588 -0.04782783
000280 13 92 53 3d 68 b7 92 3d c6 4d aa bb a0 f6 6d 3c
       0.05165298 0.07163888 -0.0051972596 0.014524132
000290 4c 36 36 be d9 9f f5 bc 8b 2d bb bd 25 e4 17 be
       -0.1779415 -0.029983448 -0.09139546 -0.14833124
0002a0 f8 53 53 bd e3 68 ae bd 3d 96 38 3d cb c6 a7 bc
       -0.05159375 -0.08516099 0.045065153 -0.020480534
0002b0 7e 96 42 bd 7b 68 32 3e 73 a9 c6 bd be 08 3e bd
       -0.0475068 0.17422669 -0.097002886 -0.046395056
0002c0 e6 6e c9 3d b5 56 07 bb 96 c6 85 3b 0f 5b 72 be
       0.09835605 -0.0020651047 0.004082511 -0.23667549
0002d0 a2 d3 ce bd 4d 4b 03 3e c6 eb 1a 3c 46 e2 89 3d
       -0.100989595 0.12821694 0.009455627 0.06732611
0002e0 8c cb bf bd 94 37 8c bd 11 ab 9f 3d 57 6e 72 3d
       -0.09364995 -0.06846538 0.077963 0.05918726
0002f0 85 dc 9b 3d 0a 44 1e bb bd 22 99 bc bb d9 03 be
       0.0761042 -0.002414944 -0.018693322 -0.12876026
000300 16 80 52 3d 41 ab 51 3d e7 03 21 bb bc 9f b0 3c
       0.051391684 0.05118871 -0.0024568976 0.021560542
000310 ca 03 00 3d 31 31 60 bd c8 af 53 bd 75 07 89 3c
       0.031253614 -0.054734413 -0.05168131 0.016727189
000320 70 3b 87 bd 7e ca e0 bc 5c b7 bd 3c 67 0f 28 3c
       -0.06603134 -0.027440306 0.023158722 0.010257578
000330 6b 10 c3 bc 68 3a a9 3c 10 fa d1 bd 4f 13 f7 3c
       -0.02381154 0.020657733 -0.10252774 0.030160574
000340 68 41 89 bc 0c fb b0 3b 9a ed 21 bc 34 7e e6 3c
       -0.016754821 0.005401021 -0.009883309 0.02813635
000350 c3 7d d1 bd e2 9c c4 bc f4 39 d1 bd 07 e0 98 3d
       -0.10229065 -0.024000589 -0.10216132 0.07464605
000360 df fe fc bc ad 3c 46 bd 81 d0 cc bd 41 f1 3c bc
       -0.03088325 -0.04839771 -0.100007065 -0.011532129
000370 3e 16 cb bd 78 c6 d4 3d ad a0 71 3d b4 9c f2 bc
       -0.09916352 0.103894174 0.058991123 -0.029615737
000380 ec f9 2a 3b 52 97 ba 3d 0f 0e ab 3d 43 cb a3 3c
       0.0026088906 0.09110893 0.08352291 0.019994384
000390 31 8c 99 3c f8 70 5e bd c5 a7 39 bd ed 95 d5 3c
       0.018743606 -0.054306954 -0.045326013 0.026072467
0003a0 c3 cb 00 3b b9 28 a7 3c 89 d1 6f 3d 1d c4 22 3c
       0.0019652701 0.02040516 0.058549438 0.009934452
0003b0 bb b5 d9 bd 10 55 56 3b 71 e6 c3 bd c1 3e 4d 3d
       -0.106303655 0.003270451 -0.095654376 0.050108675
0003c0 f0 22 b0 3a 7b cc 82 3d f9 df d6 3c c6 be 19 3c
       0.0013438147 0.06386658 0.026229845 0.009383863
0003d0 21 8a f0 3c 05 aa 2d 3d dc 69 aa bd 77 9d 4c 3c
       0.02936274 0.04239847 -0.08320972 0.012488714
0003e0 75 0c 03 3c 1f 1e 19 3d 0c d0 b2 3d 8a 8d ee bd
       0.007998575 0.03738224 0.08731088 -0.1164809
0003f0 a3 34 38 3d f0 a0 18 3d 91 56 9f bd cf f4 4d 3c
       0.044972073 0.037262857 -0.07780183 0.012570574

head.0.bias f4 [128]
000000 7f ba 93 bc 16 b6 ed bd 49 ae 78 3c 5c 11 37 3d
       -0.018033264 -0.11606996 0.015178272 0.04469429
000010 15 ab 4c 3c b6 b4 81 3d d4 60 3f bd 28 a5 9a 3b
       0.012491961 0.06333296 -0.046723202 0.004719395
000020 17 1c 09 3e 51 9c 68 3d de 15 de bd be e0 a1 3c
       0.13389622 0.0567897 -0.108440146 0.019760486
000030 74 ba f4 bc d9 15 10 3d 67 13 5b 3d ba 26 ce 3d
       -0.029874064 0.035177086 0.0534853 0.1006598
000040 2d 4f 8e 3d 83 51 c4 3c 81 eb c1 3d 8c 69 b6 bb
       0.06948695 0.023964649 0.09468747 -0.0055667814
000050 0b d8 54 3d c0 89 6a bd 39 4d 92 3d f9 96 43 bd
       0.051963847 -0.057260275 0.07143635 -0.0477514
000060 8e b7 85 bc 48 9f be 3d 8b 72 18 3e 16 1d 61 3d
       -0.016322877 0.09307724 0.14887445 0.05495938
000070 25 73 08 bc d6 63 ac 3d 55 c1 38 3d c3 83 fb 3c
       -0.008328234 0.0841748 0.04510625 0.030702477
000080 85 92 12 3e dd c6 d3 3d 1a a9 0b bd 02 1d af 3d
       0.14313705 0.103406645 -0.034096815 0.08550455
000090 0e f2 f4 3d 81 e3 2c 3d 7c fe 06 3e b4 0a aa bd
       0.11960231 0.042209152 0.13183016 -0.08302823
0000a0 cd 85 43 3d 96 29 97 3d 1b d7 2b 3d 5d 14 b0 3d
       0.047735024 0.07380979 0.041953187 0.08597634
0000b0 32 14 60 bc dd d5 16 bd 2e d8 a2 3d 9d dc b7 3d
       -0.01367669 -0.03682505 0.07951389 0.089776255
0000c0 9e 11 cd 3d 79 f8 4c 3d 66 c7 97 3b 7e 34 a5 bc
       0.10013126 0.05004165 0.0046319244 -0.020166632
0000d0 9e f1 96 3d 73 1b db 3b 57 3c 36 3d 9e 45 b5 3c
       0.073703036 0.006686622 0.04449114 0.022127923
0000e0 ed 33 20 3d 72 38 70 3d 09 1b 88 3d 47 32 a0 3d
       0.03911202 0.05864758 0.066457815 0.0782209
0000f0 02 15 4c 3d d6 49 31 3d 4d 24 02 3e 0f 17 6a 3a
       0.049824722 0.043283306 0.1270916 0.00089298276
000100 85 60 52 3d 58 96 25 3d ca c7 f1 3a 33 76 83 3c
       0.05136158 0.040426582 0.0018446383 0.016047573
000110 33 f3 40 3d 8e 5d ad 3d 74 26 c5 bc 57 7f 9c bd
       0.047106933 0.0846511 -0.024066187 -0.07641476
000120 90 3a 25 bd 2b 52 ef 3c da 02 ac bd ca 94 99 3c
       -0.040339053 0.029213985 -0.083989814 0.018747706
000130 80 5a 6a 3d d3 fe 2f bb 92 2c 6e bc 4f c1 1e 3d
       0.057215214 -0.0026854768 -0.014536994 0.038758572
000140 f4 4b 82 3d 65 f9 15 3e 07 55 da 3b 70 ab 8c bd
       0.06362143 0.14645918 0.006662968 -0.068686366
000150 0b 78 fd bd f8 56 b7 bd 40 c2 89 bc 9c 2d 31 bd
       -0.12376412 -0.08952135 -0.016816258 -0.043256387
000160 f4 93 99 bd 17 c1 78 3d c4 33 fb bc 1c e3 82 bc
       -0.07498923 0.06073102 -0.030664332 -0.015977435
000170 65 c9 92 bd f7 e7 e5 bc 41 61 3b bb 4c b0 3c bd
       -0.07167319 -0.028064711 -0.0028591903 -0.046066567
000180 45 da 2a 3d e5 71 c7 bd cf d0 7f 3b 23 a2 39 3d
       0.041712064 -0.097385205 0.0039034372 0.04532064
000190 6b d3 07 bd 49 24 22 3c d7 95 53 bd de c7 ef bb
       -0.03316061 0.009896346 -0.05165657 -0.007317527
0001a0 0d 71 14 3e 75 9b e4 3d 69 95 da bd 20 30 a7 bd
       0.1449625 0.111624636 -0.10673029 -0.08163476
0001b0 4a db 49 bd c9 e1 4b bd d4 88 d3 bd cb d2 9d bc
       -0.049281396 -0.049775872 -0.10328832 -0.019265553
0001c0 99 dc 23 bd 9b c6 5e bd ad bf 7f bd b9 78 c8 3c
       -0.0400053 -0.054388624 -0.062438656 0.024471628
0001d0 7e 1e 3c 3d e2 e9 fe 3c 12 66 fc bc f8 62 2c 3d
       0.045927517 0.031117383 -0.03081039 0.04208657
0001e0 f7 1f 8e bd a6 bc c8 3d fe 5f 1e bd e2 24 d5 3d
       -0.069396906 0.09801607 -0.038665764 0.104074255
0001f0 dd 32 b3 3d f9 4e 13 3e 2b 1b 01 3c 3e 35 64 bd
       0.08749936 0.14385594 0.0078800125 -0.05571484

head.3.weight f4 [1, 128]
000000 7b e5 e6 3d da 8c 57 3e f6 4e 93 3d d5 6a 09 3e
       0.11274239 0.21049824 0.07192795 0.1341966
000010 35 0b 1f 3d 1d 71 23 bc 20 75 a7 3d 30 16 60 bd
       0.038829047 -0.009975699 0.08176637 -0.05470866
000020 f2 6e ad bd 4e 6e 92 bd 63 02 e2 3c 1a e2 4e 3e
       -0.08468427 -0.07149945 0.027589029 0.20203438
000030 36 f9 ab bd 5a 8f 5c 3e 10 5a 15 3e 20 0c 1b be
       -0.083971426 0.2153906 0.14585137 -0.15141344
000040 f2 6b de bd f2 cb 30 3e 6f 56 5f be a5 2a 09 be
       -0.10860433 0.17265299 -0.21810316 -0.13395174
000050 45 84 03 be f0 91 25 3e 59 e4 aa bd 65 6e 17 3e
       -0.12843426 0.16168952 -0.08344335 0.14788206
000060 3c e0 8f 3b 5f 63 07 be 0b 5a 38 be db 98 fe 3d
       0.0043907445 -0.13221501 -0.18003099 0.124314986
000070 fe 3a d1 bd 3d 2a 27 be 95 43 30 3e fe 62 13 be
       -0.1021633 -0.16324706 0.1721328 -0.14393231
000080 9f be 51 be 48 6d 27 be 24 6d fb 3b f5 85 16 be
       -0.20482872 -0.16350281 0.0076729227 -0.14699538
000090 49 83 57 be ff 9e 8f 3e 2d 5f f3 bd 80 93 8a 3d
       -0.21046175 0.28050992 -0.11883388 0.06766415
0000a0 82 e0 b8 bd 09 01 06 3d f2 05 bb bd a1 2e 49 3d
       -0.090271965 0.03271583 -0.09131993 0.049116734
0000b0 84 d5 d1 3d 8e df 14 be 88 f8 0d 3c 13 d3 5e be
       0.10245803 -0.14538404 0.0086652115 -0.21760206
0000c0 73 6a d0 bd 54 77 19 3e d5 63 8d ba 24 5e 39 be
       -0.101765536 0.14986926 -0.0010787199 -0.18102318
0000d0 3e e4 c2 bd e1 11 1f be de 58 f6 3d 3e 13 bd 3d
       -0.0951619 -0.15534164 0.12028669 0.09232186
0000e0 99 97 30 bd be a7 e1 bc 95 44 77 3d 09 e8 51 3d
       -0.043113325 -0.027545806 0.06036814 0.051246677
0000f0 a0 0b d6 bd a2 6b f4 3d 9c 24 20 be 6a 3a b3 3a
       -0.10451436 0.11934592 -0.15638965 0.0013674025
000100 ae 03 51 be 4a dc 56 3c e1 80 2e 3e 4a 69 2b be
       -0.2041156 0.013114044 0.17041351 -0.16739383
000110 3e b4 84 3d 58 72 11 be 02 5c 85 3d 06 dd 42 bd
       0.06479691 -0.14203775 0.0651169 -0.047574066
000120 06 f2 32 be c2 58 c5 bd 0b 1f 32 bd 54 0e 63 be
       -0.17475137 -0.0963607 -0.043486636 -0.22173434
000130 41 54 c7 bd 57 cf da 3d a7 06 02 3e f9 6a dc bd
       -0.09732867 0.10684078 0.1269785 -0.10762591
000140 a9 97 24 3e 0c 13 2e be 50 85 62 bd c4 11 0e 3d
       0.16073479 -0.16999453 -0.055302918 0.03468491
000150 5b e3 cd 3d 09 d2 97 bc 6d 93 03 3e 44 81 10 3e
       0.1005313 -0.01853277 0.12849207 0.14111811
000160 07 a7 49 3d ae 05 ce 3c e5 c0 79 bd d9 8b 5a 3c
       0.049231555 0.025149193 -0.060974974 0.013339006
000170 e1 43 f0 3d bb 3a 67 be 90 d0 78 3d 6f d1 a6 bd
       0.11731697 -0.22580998 0.060745776 -0.08145415
000180 ee 49 d9 bd 5f d1 68 3d 22 ba f2 bd 69 d2 b2 bd
       -0.10609804 0.056840297 -0.11851908 -0.08731539
000190 21 e4 28 be 0d 46 90 3d 3e 04 c7 bc 6d 43 0c be
       -0.16493274 0.07044611 -0.024294015 -0.13697596
0001a0 98 29 1f be e1 da 19 be de d1 91 bd 72 9f 3f 3d
       -0.1554321 -0.15024902 -0.07120107 0.04678292
0001b0 79 ed bf bd d5 b4 cb 3d d8 c8 28 3d 28 66 68 bc
       -0.09371466 0.099466 0.041207165 -0.014184512
0001c0 1e 1d 67 bd fb c0 81 3c ed 6f ec 3d 1d 0e 31 be
       -0.056424253 0.01583909 0.11544786 -0.1729054
0001d0 e4 1c 73 be b5 7e 38 3e 8c 69 0a be ea bd 5c 3d
       -0.2374149 0.18017085 -0.13516825 0.053892054
0001e0 78 a3 14 3e f8 17 95 bd 5e 7b 8e bd 5a 9c ab bd
       0.14515483 -0.07279962 -0.06957124 -0.08379431
0001f0 6b 9a 97 bd b5 7b 16 be e4 d4 43 be 48 d0 1d bc
       -0.074025 -0.14695628 -0.1912418 -0.009632178
